Models/performance_espcn_x2.onnx (onnx, 7944 bytes, 3 tensors)

conv1.bias f4 [32]
000000 f5 f4 98 bd 26 fc 8b bb 01 cf e1 3b ce 97 bb 3d
       -0.07468597 -0.004272002 0.006891132 0.09159814
000010 06 9f a5 3d 11 e0 5f bb 47 63 a4 3d 4f 5a 6b bd
       0.08086972 -0.0034160654 0.08026748 -0.05745917
000020 ba eb 1e bd 8c 61 27 3d a4 f4 e0 bc 08 b0 5e 3d
       -0.038799025 0.040864512 -0.027460404 0.054367095
000030 73 2e dd 3d 6b 8f ee bc 93 4d 65 bd 6e b9 16 3d
       0.10799875 -0.029121121 -0.055982184 0.036797933
000040 47 31 4e bd df 32 e0 3d 21 1a de bc 6f 1c ba 3d
       -0.050339963 0.10947203 -0.027112069 0.090874545
000050 54 ce 93 bd 66 f6 16 bd e2 8a d3 3c fd 29 4a 3d
       -0.07217088 -0.036856078 0.02582306 0.04935645
000060 78 3d c2 3d ef e6 0a 3e 6f 41 bf 3c 75 e5 8f ba
       0.094843805 0.13564657 0.02334663 -0.0010978418
000070 5a 0c 48 bb d9 61 16 bb 4c 84 31 3d 1b 80 51 bb
       -0.003052494 -0.0022946505 0.04333906 -0.0031967226

conv2.bias f4 [16]
000000 ef 72 15 3d 33 7a bd 3c 49 c5 0a bd 86 72 32 bd
       0.036486562 0.023129558 -0.033879552 -0.04356625
000010 cd 97 07 3d 70 4e 34 bc ea 81 5c 3d b0 78 e0 bc
       0.033103753 -0.011005029 0.053834833 -0.027401298
000020 e6 8a 3c 3d 9a 5c aa bc b7 e8 bd 3c d4 55 ac 3c
       0.0460309 -0.020796109 0.023182256 0.02103702
000030 45 0e 22 bc bb 2a 0a bd 1c 12 52 bc 34 31 77 3c
       -0.009891097 -0.033732157 -0.0128217 0.0150874145

conv3.bias f4 [12]
000000 cd eb d5 bc 00 5b 0c 3b 74 10 fb 3c f7 0f a1 3c
       -0.026113415 0.0021416545 0.030647494 0.019660933
000010 84 cd 0d bd 90 6e 50 3d 4f 2b a5 3c e5 83 d4 bc
       -0.034619823 0.05088669 0.020162253 -0.025941798
000020 41 00 54 3d 02 17 f8 3c a9 05 34 3d f5 c7 84 3d
       0.051758055 0.030284408 0.04395071 0.06483451
