Models/performance_espcn_x2_fp16.onnx (onnx, 18659 bytes, 6 tensors)

conv1.weight f2 [32, 3, 5, 5]
00000000: 6c2d 002f d3a6 cb2e 10a5 9728 48a8 e92d
00000010: 1830 31ad 612f dc28 582e 6228 bb2c fda3
00000020: 712e 0c2b 38ab e428 a4a9 faa5 f4a8 732d
00000030: 03ad f0a9 ffa3 3fac 1923 ceae 622f 61ad
00000040: ae2e b428 3ca9 7c2d 5e27 6f2e be25 eca6
00000050: dd28 65a4 b32d a82e b92c 59a8 172c c228
00000060: c22c fdaa 94ae 2fa6 33ad 892e 0b2a 882b
00000070: 4c2a 8e22 fb2e 14ad 6525 84ac 3d29 1da8
00000080: 392a c2a3 002f 4ca8 82ac 92ab b62f 3f29
00000090: 2f30 d4ac d7ad 21aa e3a7 a82e 2e2e 8830
000000a0: 61a7 14ab 672e aa20 c72f 149a b72d 80b0
000000b0: 9fad df2c 342b 4725 ba2f 892d 52a6 5ea9
000000c0: d630 d928 f124 40aa 8fa8 112c 1928 dda8
000000d0: 9129 a1a9 eeac 77a7 51aa afa4 5e30 b228
000000e0: 53a8 c7b0 11a8 ada5 f22a 67ac bfab cba4
000000f0: 251d 5ba0 612b 62a9 79a9 7da1 ea20 72a8
00000100: 0531 8428 5331 3f2d 27aa 7730 4627 a91f
00000110: 35ab 87b1 af0e f124 f02c f7a9 0230 a5ad
00000120: f026 4129 232e e230 1430 dbac 5526 83aa
00000130: b1a0 44ad 692e feac e92c e72d 7129 21aa
00000140: 4930 1b2c 8f28 17ae ec2c 6ca6 ceab df2f
00000150: 8f28 45ab 29ab 18a1 c02b 04a7 29ac 1da8
00000160: 1aad de2a db2e 5dae 2629 c82c a22c 1ca8
00000170: 4d2d e32d 222d db97 82a6 5929 2aa6 d3a8
00000180: ad2e 522f de93 14a4 0f1e cb91 e828 1229
00000190: 39ae 75a9 9f2e 0e2c bc21 01ac afac 68ac
000001a0: c0a8 082c 622e eb2c 00ae 69ac 5f23 212f
000001b0: 7c23 8014 792c 3ea5 1cab 1e2e 20a9 418a
000001c0: b6ad 672c 7b2c 1225 48ad 2bac cab0 a424
000001d0: 14a4 8029 3a2c 04a6 76ac 2cb1 17b1 fbaf
000001e0: 9f28 13ae f0ac 6daf 50a9 50a9 63ac ea25
000001f0: edab 1a2b a4a9 b1ad d1a6 57aa 271a bdb0
0.0847 0.1094 -0.02666 0.10614 -0.01978 0.03586 -0.03345 0.09235
0.1279 -0.0811 0.1153 0.03796 0.0991 0.03424 0.0739 -0.0156
0.10065 0.05505 -0.0564 0.0382 -0.04407 -0.02335 -0.0387 0.08514
-0.0783 -0.0464 -0.01562 -0.06635 0.01386 -0.1063 0.11536 -0.08405
0.1044 0.03674 -0.0409 0.0857 0.02878 0.1005 0.02243 -0.02704
0.038 -0.01717 0.08905 0.104 0.0738 -0.03397 0.0639 0.03717
0.07434 -0.0546 -0.1028 -0.02415 -0.08124 0.1021 0.0472 0.05884
0.0492 0.0128 0.1091 -0.07935 0.02107 -0.07056 0.04092 -0.03214
0.0486 -0.01515 0.1094 -0.03357 -0.07043 -0.05914 0.1205 0.041
0.1307 -0.07544 -0.09125 -0.04788 -0.0308 0.104 0.09656 0.1416
-0.02882 -0.0553 0.10004 0.00911 0.1215 -0.002968 0.0893 -0.1406
-0.0878 0.0761 0.05627 0.02061 0.1207 0.0865 -0.02469 -0.04193
0.1511 0.03787 0.0193 -0.04883 -0.0356 0.06354 0.032 -0.038
0.0435 -0.04398 -0.077 -0.02916 -0.04935 -0.0183 0.1365 0.03668
-0.03378 -0.1493 -0.03177 -0.02217 0.05426 -0.0688 -0.06052 -0.01872
0.005024 -0.00851 0.05765 -0.04205 -0.04276 -0.01072 0.0096 -0.03473
0.1569 0.03528 0.1664 0.082 -0.04807 0.1395 0.02841 0.00748
-0.0563 -0.1727 0.000408 0.0193 0.07715 -0.0466 0.1252 -0.0882
0.0271 0.04105 0.0959 0.1526 0.1274 -0.07587 0.02473 -0.05087
-0.00916 -0.0823 0.10016 -0.078 0.0767 0.0922 0.0425 -0.04788
0.1339 0.06415 0.0356 -0.09515 0.0769 -0.02509 -0.06097 0.123
0.0356 -0.0568 -0.05594 -0.00995 0.06055 -0.0274 -0.065 -0.03214
-0.0797 0.05365 0.1071 -0.0994 0.04022 0.0747 0.0724 -0.0321
0.0828 0.092 0.0802 -0.001918 -0.02542 0.04178 -0.02408 -0.0377
0.1043 0.1144 -0.0009604 -0.01593 0.005917 -0.000707 0.03833 0.0396
-0.0972 -0.04263 0.10345 0.06335 0.0112 -0.06256 -0.0732 -0.06885
-0.0371 0.063 0.09973 0.07684 -0.09375 -0.0689 0.0144 0.1114
0.01462 0.001099 0.0699 -0.02048 -0.05554 0.0956 -0.04004 -0.0001909
-0.08923 0.0688 0.07 0.0198 -0.0825 -0.0651 -0.1497 0.01813
-0.01593 0.04297 0.06604 -0.0235 -0.0697 -0.1616 -0.159 -0.1247
0.0361 -0.0949 -0.07715 -0.116 -0.0415 -0.0415 -0.06854 0.0231
-0.06192 0.05548 -0.04407 -0.0889 -0.02663 -0.04953 0.003004 -0.1481

conv1.bias f2 [32]
00000000: c8ac 609c 0e1f dd2d 2d2d ff9a 232d 5bab
00000010: f7a8 3b29 08a7 f62a e92e 74a7 2aab b628
00000020: 72aa 022f f1a6 d12d 9eac b8a8 9c26 512a
00000030: 122e 5730 fa25 7f94 409a b398 8c29 8c9a
-0.0747 -0.004272 0.00689 0.0916 0.0809 -0.003416 0.08026 -0.05746
-0.0388 0.04086 -0.02747 0.05438 0.108 -0.02911 -0.05597 0.0368
-0.05035 0.1095 -0.02711 0.0909 -0.07214 -0.03687 0.02582 0.04935
0.09485 0.1356 0.02335 -0.001098 -0.003052 -0.002295 0.04333 -0.003197

conv2.weight f2 [16, 32, 3, 3]
00000000: fea9 bf28 65a8 332a f519 c025 a92a 18a6
00000010: dfa0 c499 582b 74a5 d4a4 10a8 6628 d81e
00000020: 5ba9 66a5 7f9e d12b d226 ad22 65a6 63a9
00000030: 5128 6121 7525 429f 032d 5d28 0e2b 842b
00000040: d526 3b18 b92c e69f b41e 1ca9 4a13 3cac
00000050: 2ba4 a429 229f b8a5 552c 502c c521 5aaa
00000060: 4723 2024 f82c 9318 c694 4bad 03a8 0428
00000070: fa28 c525 1ba5 272c 7224 faa2 689d 0422
00000080: 5d26 a71d dc1d 80a9 f828 6aa5 82a9 21a6
00000090: 76ab bc9a 28a2 ea1b 6e25 00a1 0d21 932b
000000a0: 21a9 bb25 5429 05a8 09a0 ad28 e02b 4195
000000b0: 2f2a dba9 eba5 4b2a 0397 3c2c e31c e999
000000c0: 8a2a e32c 5627 2aa6 581a 02a4 0c29 3420
000000d0: 2524 6728 fd28 ffa7 f128 261f 70aa 702a
000000e0: 8c28 7123 29a9 48a4 b8a8 9025 082a f1a0
000000f0: c42c 3b1c f42a 5fad c7a5 d299 9c26 419a
00000100: 29a8 e32a 6e2a 1823 74a6 b724 4615 882c
00000110: 7b20 e89c fb21 fe29 f798 202a 8328 82aa
00000120: ce98 a8aa 34a8 a91f 8324 7d19 b02b 1ba7
00000130: 3da6 929d b31e 2ba0 fb2b 9ea1 e6a5 6f21
00000140: f829 c922 8e26 a99b 642b 2d2a 2428 b49c
00000150: f8ab a8a8 2124 ed2c 3ba6 a290 a926 0498
00000160: 02a7 62a1 de2c 6c28 6d28 33aa 29a8 f322
00000170: 872b 4228 6822 0dab 121c a1a9 0faa 9219
00000180: 19a9 f62b 00a6 fe20 9e28 f0ab 4329 251f
00000190: 6e2a 4d2c fa1d 08a4 a32b f225 1013 3629
000001a0: b8a7 7ca5 5426 c621 17ac baa4 f5ab d1aa
000001b0: de28 b5a2 b4a5 7022 ae25 f4a5 c5a7 62aa
000001c0: 7a25 29a8 821c 62a9 9da8 519d 84a2 58ab
000001d0: eca3 63a9 c0aa ee26 f724 69ac a3a8 df2a
000001e0: 26ac 6ea9 53a9 a19d 6223 8ba8 e22b f7a7
000001f0: 8c2a b4a6 619a d420 fba5 2e2b dda8 4c1c
-0.0468 0.03708 -0.03433 0.04843 0.002909 0.02246 0.05203 -0.0238
-0.009514 -0.002815 0.05737 -0.0213 -0.01886 -0.03174 0.03436 0.006683
-0.04184 -0.02109 -0.006344 0.06107 0.02664 0.01304 -0.02498 -0.04208
0.03372 0.010506 0.02132 -0.007088 0.0783 0.0341 0.0551 0.05872
0.02669 0.002066 0.0738 -0.007713 0.006546 -0.03992 0.00089 -0.06616
-0.01628 0.04407 -0.006966 -0.02234 0.0677 0.0674 0.01127 -0.04962
0.01421 0.01611 0.07764 0.002234 -0.001165 -0.0827 -0.03134 0.03137
0.03888 0.02254 -0.01994 0.0649 0.01736 -0.013626 -0.00528 0.01175
0.02486 0.00552 0.005722 -0.04297 0.03882 -0.02115 -0.04303 -0.02394
-0.0583 -0.003288 -0.012024 0.003864 0.02121 -0.009766 0.009865 0.05917
-0.04007 0.02238 0.04163 -0.0314 -0.00788 0.03653 0.06152 -0.001283
0.0483 -0.04575 -0.02312 0.04916 -0.001712 0.06616 0.004772 -0.002886
0.0511 0.07635 0.02866 -0.02408 0.003098 -0.01566 0.03943 0.00821
0.01619 0.0344 0.03897 -0.03123 0.0386 0.00698 -0.0503 0.0503
0.03552 0.014534 -0.0403 -0.01672 -0.03687 0.02173 0.04712 -0.00965
0.07446 0.00413 0.05432 -0.0839 -0.02257 -0.002842 0.02582 -0.003054
-0.0325 0.0538 0.05023 0.013855 -0.0252 0.01842 0.001287 0.0708
0.00875 -0.00479 0.01168 0.0468 -0.002424 0.04785 0.03525 -0.05084
-0.002346 -0.052 -0.03284 0.00748 0.01762 0.00268 0.06006 -0.02776
-0.02437 -0.00544 0.006542 -0.00814 0.06235 -0.01097 -0.02304 0.01061
0.04663 0.01325 0.0256 -0.00374 0.05774 0.04825 0.03235 -0.004593
-0.06226 -0.03638 0.01613 0.07697 -0.02434 -0.0005655 0.02602 -0.00196
-0.02737 -0.01051 0.07605 0.03455 0.03458 -0.04843 -0.0325 0.01357
0.0588 0.03326 0.01251 -0.05508 0.003975 -0.04398 -0.04733 0.00272
-0.03983 0.0622 -0.02344 0.00975 0.03607 -0.062 0.0411 0.006977
0.05023 0.0672 0.005836 -0.01575 0.05966 0.02322 0.000862 0.0407
-0.03015 -0.02142 0.02472 0.01128 -0.0639 -0.01846 -0.06216 -0.05325
0.03802 -0.0131 -0.02228 0.01257 0.02219 -0.02325 -0.03035 -0.04987
0.0214 -0.0325 0.004402 -0.04205 -0.03604 -0.00519 -0.012726 -0.05737
-0.01547 -0.04208 -0.05273 0.02707 0.0194 -0.0689 -0.03622 0.05368
-0.0648 -0.04242 -0.0416 -0.005497 0.01442 -0.0355 0.06158 -0.03111
0.05115 -0.02618 -0.003115 0.00943 -0.02336 0.0561 -0.038 0.004196

conv2.bias f2 [16]
00000000: ac28 ec25 56a8 94a9 3d28 a2a1 e42a 04a7
00000010: e429 53a5 ef25 6325 10a1 51a8 91a2 ba23
0.0365 0.02313 -0.03387 -0.04358 0.0331 -0.011 0.05383 -0.0274
0.04602 -0.0208 0.02318 0.02104 -0.00989 -0.03372 -0.012825 0.01509

conv3.weight f2 [12, 16, 3, 3]
00000000: 602b 04a5 a926 77a7 5da7 352c 47a1 f9ab
00000010: 8d24 00a5 3c24 64ab c0a5 b4a9 a7aa 8525
00000020: 4a17 f91d 342d 4e22 b326 8d9e 64ac 282a
00000030: 682c 5e25 cbaa ca2c c724 b72b a228 ba22
00000040: 4aa6 6124 dd26 2d9d c8ab 7098 dbad 38aa
00000050: 0ea1 df2b 7aac 14ab dc28 4d2f 34a8 dca7
00000060: d02a a92e 9d9f ae29 462e bd2c ad29 f72b
00000070: 2aac 8f27 ec2c 38ab ebab 5cab d228 5e2d
00000080: 0a20 25ac ffa7 3ead 03a4 feac 1fa8 d7aa
00000090: 65a4 292c 0726 212c 79ac 1cab 6f2b d32c
000000a0: 152d 25ac 9c29 49ad aea6 5317 f929 88a7
000000b0: 28ac 5aac 02a8 8e2c 4629 d029 b6aa 98ab
000000c0: 442d 722c dba5 ef27 662f 5e28 f7a9 4f14
000000d0: 0e2a 7b2d 932e 8c25 7ea0 1f31 921f 23a0
000000e0: 62ab 851f 8eab f32f f1a3 0120 67aa 0d21
000000f0: eaa8 25a9 53a8 e82a 2c23 e6a4 b82c ef20
00000100: 83a1 b824 52a9 34a8 14a4 500d 85ac 4ead
00000110: ed2d 4e25 26a7 872d e99a a82c aa27 0824
00000120: b2aa b82a 34aa 0429 65a1 21a5 f3a8 1e24
00000130: 9f2c 1ba5 eb28 f0af 9eab feaa 2bae da24
00000140: 64a7 1fa0 c2a5 adac 8aa4 dfac e027 4ea9
00000150: f32a a328 94aa 19a6 c7ac af2b c5a8 7ca4
00000160: 4c1e 2d29 5da6 3b29 58a4 b925 3e25 7dad
00000170: 67ac dca9 84a6 302a 0b21 f8a0 942f e224
00000180: ad2e 5c30 2128 1121 d6a2 b82b 382c 0b2a
00000190: de2c 0a29 3128 dca1 56ac fea1 7d2c 2c2c
000001a0: 6526 932a c493 a2ad f3af 32ae 83a8 3da3
000001b0: 5228 182c 85a8 3b2b 3126 d2aa 44ab 2529
000001c0: 2e2d dcaa df26 adac 7729 f625 8883 f724
000001d0: 3626 a12b f520 3624 ac29 e626 aeab 2da7
000001e0: a72b 82a5 642c bdab 0a31 31ad 9827 629f
000001f0: d52a e925 3d2f f61a 041f cc25 ab2c b0a4
0.05762 -0.01959 0.02602 -0.02916 -0.02876 0.06573 -0.01031 -0.0623
0.01778 -0.01953 0.01654 -0.05774 -0.02246 -0.04456 -0.05197 0.02156
0.00178 0.005833 0.0813 0.012314 0.02617 -0.006397 -0.0686 0.0481
0.06885 0.02097 -0.05307 0.0748 0.01866 0.06027 0.0362 0.01314
-0.02457 0.0171 0.02681 -0.005054 -0.0608 -0.002167 -0.0915 -0.04858
-0.00987 0.0615 -0.06995 -0.0553 0.03796 0.1141 -0.03284 -0.0307
0.05322 0.10406 -0.007435 0.04437 0.098 0.07404 0.04434 0.06223
-0.06506 0.02953 0.0769 -0.0564 -0.06186 -0.0575 0.03766 0.08386
0.00789 -0.06476 -0.03123 -0.0819 -0.01567 -0.078 -0.0322 -0.05344
-0.01717 0.065 0.02354 0.0645 -0.0699 -0.05554 0.05807 0.0754
0.0794 -0.06476 0.04382 -0.0826 -0.0261 0.001788 0.04666 -0.02942
-0.06494 -0.068 -0.0313 0.07117 0.0412 0.0454 -0.05243 -0.05933
0.0823 0.06946 -0.02287 0.03099 0.1156 0.03412 -0.0466 0.001052
0.0473 0.08563 0.1027 0.02167 -0.00877 0.16 0.007393 -0.00808
-0.05768 0.007343 -0.05902 0.1242 -0.01551 0.00782 -0.05002 0.009865
-0.0384 -0.0402 -0.03378 0.05396 0.01401 -0.01913 0.0737 0.009636
-0.010765 0.01843 -0.04156 -0.03284 -0.01593 0.0003242 -0.0706 -0.0829
0.0926 0.02072 -0.02792 0.08636 -0.003374 0.07275 0.02994 0.01575
-0.0523 0.0525 -0.04846 0.03918 -0.01054 -0.02003 -0.03867 0.01608
0.0722 -0.01994 0.03842 -0.124 -0.0595 -0.05463 -0.0964 0.01895
-0.02887 -0.00805 -0.02249 -0.07306 -0.01773 -0.0761 0.03076 -0.04144
0.0543 0.03622 -0.0514 -0.02382 -0.07465 0.06003 -0.03726 -0.01752
0.00615 0.04044 -0.02486 0.04086 -0.01697 0.02235 0.02048 -0.08575
-0.0688 -0.04578 -0.02545 0.04834 0.00985 -0.009705 0.1184 0.01907
0.1043 0.1362 0.03226 0.009895 -0.01335 0.0603 0.0659 0.0472
0.07605 0.03937 0.03275 -0.011444 -0.06775 -0.0117 0.0701 0.0652
0.02498 0.05136 -0.000948 -0.088 -0.1242 -0.0968 -0.03525 -0.01414
0.03375 0.06396 -0.0353 0.0565 0.02419 -0.05328 -0.05676 0.0402
0.08093 -0.0536 0.02684 -0.07306 0.0427 0.02328 -5.39e-05 0.0194
0.02426 0.0596 0.00968 0.01645 0.0443 0.02695 -0.06 -0.02803
0.05978 -0.02151 0.0686 -0.06046 0.1575 -0.0811 0.02966 -0.00721
0.05338 0.02309 0.1131 0.003399 0.00685 0.02264 0.07294 -0.01831

conv3.bias f2 [12]
00000000: afa6 6318 d927 0825 6ea8 832a 2925 a4a6
00000010: a02a c127 a029 262c
-0.02611 0.002142 0.03065 0.01965 -0.0346 0.05087 0.02016 -0.02594
0.05176 0.03029 0.04395 0.0648
