Models/performance_espcn_x2.pth (torch, 113615 bytes, 18 tensors)

conv1.weight f4 [32, 3, 5, 5]
0.08473517 0.10938196 -0.02665465 0.10615724 -0.019773606 0.035856996 -0.033462297 0.09236627
0.12795721 -0.081131205 0.115267284 0.037965536 0.09909622 0.034229107 0.073910065 -0.015602054
0.10062754 0.055045504 -0.05638775 0.038202807 -0.044061452 -0.023342263 -0.038681947 0.08515524
-0.078293756 -0.046382528 -0.015619816 -0.066372454 0.01386394 -0.106322505 0.11536455 -0.0840202
0.10439836 0.036740277 -0.040894944 0.08571133 0.028777923 0.10049872 0.022433408 -0.027035983
0.038007446 -0.017159907 0.089076236 0.10403089 0.07379134 -0.033963926 0.06388187 0.03718068
0.074334376 -0.054607835 -0.102791525 -0.02414949 -0.0812284 0.102124564 0.047224358 0.05884584
0.049201533 0.012805929 0.10905289 -0.07935017 0.021076377 -0.07053497 0.040925805 -0.032134205
0.048605256 -0.015148869 0.10935774 -0.03356626 -0.07043739 -0.059152644 0.12050974 0.04099822
0.13073231 -0.075428255 -0.09123016 -0.04787649 -0.030811578 0.10401976 0.09658667 0.14165485
-0.028822947 -0.055307787 0.10002257 0.009110482 0.121520676 -0.0029687558 0.089277886 -0.14067279
-0.08780342 0.076086186 0.05627331 0.020615544 0.1207373 0.08647072 -0.024695659 -0.04193598
0.15112652 0.037880648 0.019303618 -0.048828095 -0.03561113 0.06355944 0.03199867 -0.037981138
0.04348501 -0.043969605 -0.077025585 -0.029160194 -0.049336415 -0.01828791 0.13643923 0.036681682
-0.03378998 -0.14928958 -0.03176138 -0.022178013 0.054247044 -0.068812236 -0.060518153 -0.018721031
0.0050240997 -0.008503495 0.05766083 -0.04204489 -0.042758718 -0.010716008 0.009598638 -0.034731958
0.15688309 0.03526422 0.16638121 0.08194641 -0.04806687 0.13955115 0.028418606 0.0074789324
-0.05631854 -0.17270881 0.00040801128 0.019296654 0.07715223 -0.046595853 0.12527885 -0.08820434
0.027099755 0.04105767 0.09590139 0.1526415 0.12745903 -0.07585738 0.02473704 -0.050878048
-0.0091599915 -0.08226654 0.10017906 -0.07801496 0.07673838 0.09224986 0.042515676 -0.047880113
0.13396727 0.06414536 0.035602484 -0.095149755 0.07689868 -0.025079057 -0.060988277 0.12296038
0.03562676 -0.05678698 -0.055935968 -0.009946593 0.060544595 -0.027397912 -0.065001294 -0.032128
-0.07971551 0.053648613 0.10710384 -0.09942716 0.040207222 0.07468305 0.07241724 -0.032089297
0.082807876 0.09197353 0.080187485 -0.0019179772 -0.025422739 0.04176818 -0.024082392 -0.03769469
0.10428279 0.11438087 -0.0009603104 -0.015929187 0.0059173717 -0.0007071138 0.03833131 0.039612923
-0.0972239 -0.042627826 0.103483774 0.06337192 0.011197964 -0.06254826 -0.07320471 -0.06882307
-0.037124008 0.06296046 0.099754125 0.07684672 -0.093746595 -0.068905085 0.0143949995 0.11141362
0.01461502 0.0010990239 0.069858395 -0.020477468 -0.05554482 0.09559512 -0.040043253 -0.00019080105
-0.08925112 0.06877978 0.07000452 0.019810678 -0.08249306 -0.06511001 -0.1496125 0.018125556
-0.015927166 0.042957645 0.06601505 -0.023496527 -0.06972032 -0.16160251 -0.15909408 -0.124705896
0.03609138 -0.094909266 -0.07713515 -0.115998335 -0.041508615 -0.04151781 -0.06854669 0.023105461
-0.061908133 0.055473883 -0.044071477 -0.08893618 -0.026620736 -0.049543273 0.0030038608 -0.14802018
00000000: a289 ad3d a603 e03d da5a dabc f868 d93d
00000010: 42fc a1bc c9de 123d c30f 09bd 872a bd3d
00000020: 3707 033e 1e28 a6bd 4111 ec3d c081 1b3d
00000030: f6f2 ca3d d233 0c3d 295e 973d c29f 7fbc
00000040: d015 ce3d 6577 613d d7f6 66bd 8c7a 1c3d
00000050: c879 34bd 4638 bfbc f670 1ebd df65 ae3d
00000060: 7a58 a0bd 9bfb 3dbd 42ea 7fbc 48ee 87bd
00000070: 9425 633c 9dbf d9bd 4044 ec3d c812 acbd
00000080: cfce d53d f97c 163d 7581 27bd 6c89 af3d
00000090: aebf eb3c 46d2 cd3d 44c6 b73c 917a ddbc
000000a0: b2ad 1b3d ef92 8cbc 9a6d b63d 260e d53d
000000b0: ea1f 973d c21d 0bbd 7fd4 823d c54a 183d
000000c0: 9f3c 983d 77ac 5fbd 5d84 d2bd 27d5 c5bc
000000d0: 135b a6bd af26 d13d 546e 413d 5608 713d
000000e0: 8c87 493d f6cf 513c 1f57 df3d 5882 a2bd
000000f0: 5ea8 ac3c a374 90bd d1a1 273d 289f 03bd
00000100: 4e16 473d f632 78bc f3f6 df3d c67c 09bd
00000110: 7a41 90bd 0b4a 72bd d0cd f63d c0ed 273d
00000120: b1de 053e 217a 9abd e1d6 babd 231a 44bd
00000130: 9068 fcbc 5008 d53d 3bcf c53d f80d 113e
00000140: 1a1e ecbc 6b8a 62bd a2d8 cc3d 2244 153c
00000150: d5df f83d 758f 42bb 53d7 b63d 870c 10be
00000160: 48d2 b3bd 13d3 9b3d d87e 663d eee1 a83c
00000170: 1e45 f73d 9017 b13d 8d4e cabc 10c5 2bbd
00000180: e9c0 1a3e bd28 1b3d 9f22 9e3c f8ff 47bd
00000190: fadc 11bd 742b 823d 0a11 033d 1c92 1bbd
000001a0: 561d 323d 7919 34bd 97bf 9dbd 5ce1 eebc
000001b0: fb14 4abd 87d0 95bc bab6 0b3e 883f 163d
000001c0: 5d67 0abd 5edf 18be 3918 02bd aaae b5bc
000001d0: 2632 5e3d 6eed 8cbd e2e1 77bd d95c 99bc
000001e0: 34a1 a43b 3e52 0bbc c32d 6c3d 4337 2cbd
000001f0: c423 2fbd 3292 2fbc 9b43 1d3c 1943 0ebd
00000200: f6a5 203e 3771 103d d65f 2a3e 85d3 a73d
00000210: c4e1 44bd 7fe6 0e3e 23ce e83c d511 f53b
00000220: 45ae 66bd 94da 30be 59ea d539 0414 9e3c
00000230: fd01 9e3d 4bdb 3ebd 1949 003e 7aa4 b4bd
00000240: 4e00 de3c 162c 283d f367 c43d 0e4e 1c3e
00000250: 9f84 023e 1d5b 9bbd 55a5 ca3c 8065 50bd
00000260: ca13 16bc 5c7b a8bd ae2a cd3d 4fc6 9fbd
00000270: 0329 9d3d 7fed bc3d eb24 2e3d f01d 44bd
00000280: b72e 093e a45e 833d e9d3 113d e0dd c2bd
00000290: 0e7d 9d3d 9872 cdbc d8ce 79bd a7d2 fb3d
000002a0: 5eed 113d 7799 68bd 1d1d 65bd 09f7 22bc
000002b0: 9cfd 773d 9671 e0bc 661f 85bd a698 03bd
000002c0: e341 a3bd a6be 5b3d 4259 db3d 78a0 cbbd
000002d0: 54b0 243d 6df3 983d 7d4f 943d 1170 03bd
000002e0: 2d97 a93d 9e5c bc3d 5639 a43d a364 fbba
000002f0: 5943 d0bc 1c15 2b3d 7048 c5bc bf65 1abd
00000300: 3792 d53d 8440 ea3d 57bd 7bba ed7d 82bc
00000310: 83e6 c13b 9b5d 39ba 4b01 1d3d 2941 223d
00000320: 531d c7bd 849a 2ebd 4def d33d 23c9 813d
00000330: aa77 373c 4d19 80bd 5aec 95bd 1cf3 8cbd
00000340: 580f 18bd 6af1 803d e44b cc3d d061 9d3d
00000350: 37fe bfbd 1c1e 8dbd 01d9 6b3c d32c e43d
00000360: d673 6f3c 1f0d 903a eb11 8f3d 5dc0 a7bc
00000370: f782 63bd 60c7 c33d 6504 24bd c411 48b9
00000380: 4bc9 b6bd 6adc 8c3d 885e 8f3d 014a a23c
00000390: 1ff2 a8bd 6658 85bd 0534 19be 0c7c 943c
000003a0: b079 82bc 5bf4 2f3d e632 873d ca7b c0bc
000003b0: 87c9 8ebd 217b 25be 8fe9 22be ce65 ffbd
000003c0: 8ed4 133d ca5f c2bd 09f9 9dbd 8990 edbd
000003d0: f004 2abd 940e 2abd 3562 8cbd aa47 bd3c
000003e0: 6293 7dbd 9538 633d 4b84 34bd 2c24 b6bd
000003f0: bb13 dabc e3ed 4abd 6cdc 443b 9a92 17be

conv1.bias f4 [32]
-0.07468597 -0.004272002 0.006891132 0.09159814 0.08086972 -0.0034160654 0.08026748 -0.05745917
-0.038799025 0.040864512 -0.027460404 0.054367095 0.10799875 -0.029121121 -0.055982184 0.036797933
-0.050339963 0.10947203 -0.027112069 0.090874545 -0.07217088 -0.036856078 0.02582306 0.04935645
0.094843805 0.13564657 0.02334663 -0.0010978418 -0.003052494 -0.0022946505 0.04333906 -0.0031967226
00000000: f5f4 98bd 26fc 8bbb 01cf e13b ce97 bb3d
00000010: 069f a53d 11e0 5fbb 4763 a43d 4f5a 6bbd
00000020: baeb 1ebd 8c61 273d a4f4 e0bc 08b0 5e3d
00000030: 732e dd3d 6b8f eebc 934d 65bd 6eb9 163d
00000040: 4731 4ebd df32 e03d 211a debc 6f1c ba3d
00000050: 54ce 93bd 66f6 16bd e28a d33c fd29 4a3d
00000060: 783d c23d efe6 0a3e 6f41 bf3c 75e5 8fba
00000070: 5a0c 48bb d961 16bb 4c84 313d 1b80 51bb

conv2.weight f4 [16, 32, 3, 3]
-0.0468153 0.037091624 -0.034321498 0.048438996 0.0029085255 0.022459134 0.05204647 -0.023806766
-0.00951293 -0.002816001 0.05736142 -0.021297071 -0.018862633 -0.03174756 0.034370802 0.00668283
-0.041843954 -0.021085335 -0.006345744 0.06105657 0.026647542 0.013040189 -0.024971077 -0.042078376
0.033708666 0.010508408 0.021317359 -0.0070866286 0.07833017 0.034077954 0.05510948 0.05870276
0.026686728 0.0020663054 0.07380973 -0.0077129 0.006544781 -0.03990695 0.00088996376 -0.0661611
-0.016288461 0.044064283 -0.006966664 -0.022335134 0.067682706 0.06736419 0.011265839 -0.04962557
0.014212127 0.016109249 0.07763739 0.002234399 -0.0011657334 -0.08269649 -0.031329002 0.031371284
0.038870886 0.022539772 -0.019948723 0.064888276 0.017371953 -0.013625308 -0.00527878 0.011748232
0.024862213 0.005519988 0.0057201725 -0.042976636 0.038818907 -0.021153806 -0.043043774 -0.023943862
-0.058284454 -0.0032879233 -0.012025907 0.003864975 0.021206388 -0.00976395 0.009864702 0.05916087
-0.04005884 0.022381807 0.041614905 -0.031408817 -0.007881204 0.036524236 0.061520077 -0.0012826533
0.04831764 -0.04575365 -0.023116635 0.049165573 -0.0017120849 0.06618301 0.004772254 -0.0028850888
0.05109581 0.076348394 0.02864933 -0.024072178 0.0030975083 -0.015654804 0.039420605 0.008208511
0.01618788 0.0344074 0.038972437 -0.0312378 0.038605563 0.00698032 -0.05030767 0.050277956
0.0355091 0.014531696 -0.04030057 -0.016728004 -0.03686303 0.021721799 0.047119655 -0.0096524125
0.07443328 0.004129771 0.05430746 -0.08394334 -0.022562096 -0.0028415741 0.025823813 -0.0030540857
-0.032513868 0.05381374 0.050240524 0.013852232 -0.025209542 0.018412447 0.0012877039 0.07077342
0.008752226 -0.0047905026 0.011677234 0.046826053 -0.0024236785 0.04785449 0.035243988 -0.050850466
-0.0023469066 -0.051994763 -0.03282523 0.0074824593 0.01762026 0.0026800004 0.060046062 -0.027763322
-0.024366982 -0.005440199 0.0065419707 -0.0081397975 0.06236135 -0.010968232 -0.023047242 0.010613972
0.04662111 0.013251781 0.025606394 -0.0037394732 0.05774794 0.048248556 0.032347128 -0.0045937286
-0.062263444 -0.03638926 0.016133495 0.07696204 -0.02434184 -0.0005655535 0.02601476 -0.0019604214
-0.027377786 -0.010513996 0.07603803 0.034557533 0.034582447 -0.048428047 -0.03249272 0.01357232
0.05879356 0.033276413 0.012511594 -0.05509044 0.0039736456 -0.043980524 -0.04732909 0.0027207688
-0.03983289 0.062198944 -0.023444002 0.009751058 0.036080506 -0.062002577 0.041102536 0.0069769355
0.05022913 0.06722549 0.005836626 -0.01574272 0.05966408 0.023218669 0.00086203247 0.04071998
-0.030154783 -0.02142526 0.024716217 0.011275462 -0.06389099 -0.018467877 -0.062179428 -0.053263765
0.038032908 -0.013102153 -0.022279082 0.012576057 0.02219179 -0.023254946 -0.030356871 -0.049859934
0.021398075 -0.032492675 0.004402531 -0.042047083 -0.036028486 -0.005190359 -0.012726209 -0.05737417
-0.015470657 -0.04208806 -0.05272727 0.027068052 0.019399606 -0.06891662 -0.03622455 0.05369189
-0.0648425 -0.04240732 -0.04160447 -0.005498729 0.014423184 -0.03548111 0.061577294 -0.031115161
0.051142056 -0.026181534 -0.003115044 0.009433674 -0.02336652 0.056102052 -0.03800278 0.0041972664
00000000: 66c1 3fbd 63ed 173d b394 0cbd f867 463d
00000010: f69c 3e3b 38fc b73c ae2e 553d 6806 c3bc
00000020: 1fdc 1bbc a88c 38bb cff3 6a3d 3277 aebc
00000030: cf85 9abc bb09 02bd 66c8 0c3d a4fb da3b
00000040: 9164 2bbd 27bb acbc f5ef cfbb 7416 7a3d
00000050: f24b da3c 84a6 553c 2590 ccbc 605a 2cbd
00000060: 1912 0a3d 752b 2c3c bea1 ae3c f336 e8bb
00000070: 916b a03d 5395 0b3d 7aba 613d 4e72 703d
00000080: 209e da3c da6a 073b 8e29 973d 7fbc fcbb
00000090: 9a75 d63b 7875 23bd 754c 693a 797f 87bd
000000a0: 616f 85bc c07c 343d 9d48 e4bb 2cf8 b6bc
000000b0: 3b9d 8a3d 3df6 893d 5b94 383c 2f44 4bbd
000000c0: fbd9 683c 8bf7 833c 5a00 9f3d ff6e 123b
000000d0: 86cb 98ba c75c a9bd d752 00bd 2d7f 003d
000000e0: 1437 1f3d 54a5 b83c 816b a3bc 25e4 843d
000000f0: a04f 8e3c af3c 5fbc 9ef9 acbb a87b 403c
00000100: d7ab cb3c 04e1 b43b 4970 bb3b 4508 30bd
00000110: 9300 1f3d bf4a adbc ab4e 30bd eb25 c4bc
00000120: aebb 6ebd 337a 57bb 4f08 45bc 854b 7d3b
00000130: 05b9 ad3c f9f8 1fbc 8f9f 213c ab52 723d
00000140: bd14 24bd 0d5a b73c 6474 2a3d 88a6 00bd
00000150: 2a20 01bc 709a 153d 7afc 7b3d b41e a8ba
00000160: b8e8 453d 2e68 3bbd 195f bdbc d761 493d
00000170: 0968 e0ba f58a 873d 9160 9c3b c213 3dbb
00000180: d749 513d 8c5c 9c3d 00b2 ea3c 0433 c5bc
00000190: 91ff 4a3b 813e 80bc 8077 213d fe7c 063c
000001a0: 729c 843c c6ee 0c3d 90a1 1f3d 6ae6 ffbc
000001b0: de20 1e3d 2bbb e43b 6a0f 4ebd 42f0 4d3d
000001c0: fd71 113d 5a16 6e3c 3612 25bd 2b09 89bc
000001d0: b0fd 16bd eaf1 b13c 8a00 413d 2725 1ebc
000001e0: 7a70 983d 0853 873b 8071 5e3d 7cea abbd
000001f0: 25d4 b8bc b439 3abb 768c d33c 0e27 48bb
00000200: 432d 05bd cc6b 5c3d 02c9 4d3d 79f4 623c
00000210: 3e84 cebc b3d5 963c 2cc8 a83a a8f1 903d
00000220: 7f65 0f3c a6f9 9cbb df51 3f3c adcc 3f3d
00000230: 94d6 1ebb 1203 443d 005c 103d 9448 50bd
00000240: 8fce 19bb 76f8 54bd c073 06bd 6b2f f53b
00000250: 5d58 903c f2a2 2f3b dcf2 753d e86f e3bc
00000260: 449d c7bc b243 b2bb 075e d63b c95c 05bc
00000270: 9d6e 7f3d 19b4 33bc 92cd bcbc 3ae6 2d3c
00000280: c7f5 3e3d 001e 593c 80c4 d13c f311 75bb
00000290: 1b89 6c3d 47a0 453d 6c7e 043d fd86 96bb
000002a0: f407 7fbd e80c 15bd 642a 843c 469e 9d3d
000002b0: 8a68 c7bc a741 14ba e81c d53c 6a7a 00bb
000002c0: 6147 e0bc e542 2cbc d4b9 9b3d 338c 0d3d
000002d0: 53a6 0d3d 7d5c 46bd 1617 05bd 705e 5e3c
000002e0: 84d1 703d d94c 083d 6efd 4c3c 83a6 61bd
000002f0: 5b35 823b ec24 34bd 26dc 41bd ed4e 323b
00000300: d027 23bd 52c4 7e3d a30d c0bc e7c2 1f3c
00000310: 27c9 133d 6af6 7dbd 225b 283d c79e e43b
00000320: 0fbd 4d3d 85ad 893d 2b41 bf3b e0f6 80bc
00000330: 5362 743d 1435 be3c 05fa 613a fec9 263d
00000340: 2a07 f7bc 0784 afbc aa79 ca3c b7bc 383c
00000350: 48d9 82bd f249 97bc dbaf 7ebd 1b2b 5abd
00000360: 65c8 1b3d 6aaa 56bc 9f82 b6bc ce0b 4e3c
00000370: 8fcb b53c 2881 bebc f9ae f8bc ee39 4cbd
00000380: 044b af3c 0a17 05bd 1b43 903b 9039 2cbd
00000390: 9b92 13bd e313 aabb 9781 50bc 2d01 6bbd
000003a0: a378 7dbc 8864 2cbd 8df8 57bd d2bd dd3c
000003b0: eceb 9e3c 2824 8dbd 3260 14bd 07ec 5b3d
000003c0: 25cc 84bd 4cb3 2dbd 7369 2abd af2e b4bb
000003d0: 384f 6c3c a454 11bd 7938 7c3d 39e5 febc
000003e0: 557a 513d a87a d6bc c425 4cbb b28f 1a3c
000003f0: 256b bfbc 44cb 653d cea8 1bbd 3989 893b

conv2.bias f4 [16]
0.036486562 0.023129558 -0.033879552 -0.04356625 0.033103753 -0.011005029 0.053834833 -0.027401298
0.0460309 -0.020796109 0.023182256 0.02103702 -0.009891097 -0.033732157 -0.0128217 0.0150874145
00000000: ef72 153d 337a bd3c 49c5 0abd 8672 32bd
00000010: cd97 073d 704e 34bc ea81 5c3d b078 e0bc
00000020: e68a 3c3d 9a5c aabc b7e8 bd3c d455 ac3c
00000030: 450e 22bc bb2a 0abd 1c12 52bc 3431 773c

conv3.weight f4 [12, 16, 3, 3]
0.05762558 -0.019594895 0.026021443 -0.029161423 -0.028760064 0.06573761 -0.01030398 -0.062279865
0.017778372 -0.019533526 0.016533578 -0.057734147 -0.022460438 -0.04454194 -0.051981214 0.021565435
0.0017796642 0.005831237 0.08127664 0.012313684 0.026162695 -0.0063955435 -0.06861902 0.04808201
0.068868384 0.020963024 -0.053058706 0.07481576 0.018660221 0.06026867 0.0361886 0.013138176
-0.024560133 0.017102037 0.026806483 -0.0050546005 -0.060796868 -0.0021662572 -0.09151454 -0.048574418
-0.009873872 0.06148654 -0.06996136 -0.05528281 0.03796405 0.11406587 -0.032848377 -0.030704612
0.05322284 0.10404906 -0.007435691 0.04438262 0.09801048 0.07406342 0.044355664 0.06222346
-0.065077804 0.029520685 0.07692551 -0.05640199 -0.06185984 -0.057499073 0.03766711 0.08389192
0.007888717 -0.064738385 -0.031239899 -0.08190571 -0.015665464 -0.07800626 -0.032211214 -0.05343859
-0.017159395 0.06498638 0.023540681 0.06449178 -0.069907665 -0.055545196 0.058086686 0.07540025
0.07939053 -0.064760566 0.043834735 -0.08260307 -0.026099835 0.0017879555 0.046652436 -0.02941176
-0.06491358 -0.067977704 -0.031301174 0.07117325 0.04119761 0.045408506 -0.052434668 -0.059329186
0.08224884 0.06944666 -0.022874394 0.030983157 0.11561138 0.03410662 -0.046609174 0.0010521547
0.047313105 0.08565587 0.102746606 0.021669544 -0.008770735 0.15998721 0.007393651 -0.008077917
-0.057668753 0.0073439907 -0.05901948 0.12422484 -0.015508401 0.007818181 -0.050008167 0.009861251
-0.03837788 -0.04020106 -0.03376779 0.053963885 0.014009335 -0.019139774 0.0737299 0.009636305
-0.01076624 0.018425917 -0.04156829 -0.032826312 -0.015931826 0.0003241745 -0.07059629 -0.08287469
0.092597425 0.020721355 -0.027927209 0.086364076 -0.0033738588 0.072763756 0.029931331 0.015746424
-0.052296914 0.052501127 -0.048466288 0.039190825 -0.010536134 -0.020030424 -0.03866852 0.01608568
0.07221584 -0.019942218 0.03843554 -0.12399468 -0.059505537 -0.05463604 -0.096367516 0.018956956
-0.028871808 -0.008051609 -0.022498807 -0.07306617 -0.017729348 -0.0761063 0.030759403 -0.041432526
0.054280687 0.036234763 -0.051401656 -0.023823677 -0.074670635 0.060026098 -0.037276223 -0.017512918
0.0061481474 0.04044223 -0.024849812 0.040850885 -0.016965842 0.02235972 0.02047511 -0.08574096
-0.06876954 -0.04576153 -0.025454696 0.048330825 0.009848846 -0.009705752 0.118397556 0.019075891
0.104294844 0.13620237 0.03224444 0.009897133 -0.013350965 0.060307667 0.065894954 0.047210563
0.076050535 0.039364893 0.032752994 -0.011443278 -0.06771963 -0.011706372 0.07013699 0.065158725
0.02497375 0.051355362 -0.0009481228 -0.08802311 -0.12418192 -0.09677306 -0.035232782 -0.014140855
0.03373945 0.06397528 -0.035297878 0.05650186 0.024185117 -0.053292055 -0.05675259 0.0402027
0.08095688 -0.05358393 0.026838534 -0.07307657 0.042687964 0.02327857 -5.386808e-05 0.019399721
0.02426284 0.059593156 0.0096821 0.016447887 0.0443233 0.026941286 -0.0599921 -0.028031856
0.059791133 -0.021507628 0.06861054 -0.06045337 0.15745468 -0.08109816 0.029668989 -0.0072088297
0.05337853 0.02308493 0.11308118 0.0033981039 0.00685161 0.02264544 0.072947174 -0.018315399
00000000: cd08 6c3d 7985 a0bc ec2a d53c f0e3 eebc
00000010: 3a9a ebbc 71a1 863d 06d2 28bc 2c19 7fbd
00000020: f3a3 913c c604 a0bc 6d71 873c a47a 6cbd
00000030: f4fe b7bc 9c71 36bd 41ea 54bd ffa9 b03c
00000040: 9f43 e93a f613 bf3b 5e74 a63d 56bf 493c
00000050: 2653 d63c b591 d1bb 2188 8cbd a4f1 443d
00000060: de0a 8d3d a6ba ab3c 1654 59bd 0139 993d
00000070: 52dd 983c 48dc 763d 7f3a 143d 8141 573c
00000080: 5532 c9bc 9219 8c3c 4599 db3c 10a1 a5bb
00000090: 2306 79bd c4f7 0dbb fa6b bbbd f8f5 46bd
000000a0: 05c6 21bc 4fd9 7b3d e747 8fbd 3a70 62bd
000000b0: 3180 1b3d 5e9b e93d 058c 06bd 3d88 fbbc
000000c0: 3100 5a3d ac17 d53d 19a7 f3bb 8dca 353d
000000d0: b8b9 c83d 90ae 973d 49ae 353d 07de 7e3d
000000e0: 8347 85bd 5dd5 f13c 1f8b 9d3d c605 67bd
000000f0: be60 7dbd 2684 6bbd d448 1a3d 87cf ab3d
00000100: ad3f 013c 8f95 84bd d1ea ffbc 2ebe a7bd
00000110: dc54 80bc bfc1 9fbd e8ef 03bd 6ce2 5abd
00000120: dc91 8cbc 9417 853d 63d8 c03c 4414 843d
00000130: c02b 8fbd 5c83 63bd 4eec 6d3d 726b 9a3d
00000140: 8197 a23d 30a1 84bd 0d8c 333d cc2b a9bd
00000150: 52cf d5bc d559 ea3a a016 3f3d eef0 f0bc
00000160: 69f1 84bd e537 8bbd a935 00bd 48c3 913d
00000170: d3be 283d 45fe 393d bcc5 56bd 2903 73bd
00000180: 1472 a83d 0d3a 8e3d 1563 bbbc 64d0 fd3c
00000190: a9c5 ec3d 62b3 0b3d 43e9 3ebd 74e8 893a
000001a0: 63cb 413d 586c af3d d06c d23d 5484 b13c
000001b0: 21b3 0fbc b0d3 233e 7146 f23b 3d59 04bc
000001c0: 1236 6cbd dca5 f03b 69be 71bd 9869 fe3d
000001d0: f316 7ebc d417 003c 5dd5 4cbd 1691 213c
000001e0: 2032 1dbd dea9 24bd 1850 0abd 3c09 5d3d
000001f0: 6987 653c 04cb 9cbc b4ff 963d 98e1 1d3c
00000200: e264 30bc f3f1 963c 8343 2abd e274 06bd
00000210: 7683 82bc f7f5 a939 ca94 90bd 35ba a9bd
00000220: b8a3 bd3d d5bf a93c 9ac7 e4bc a6df b03d
00000230: f51b 5dbb 2a05 953d 8d32 f53c a5fe 803c
00000240: 4a35 56bd 6c0b 573d 9684 46bd 8f86 203d
00000250: c09f 2cbc d816 a4bc e262 1ebd 1ec6 833c
00000260: e6e5 933d dd5d a3bc 966e 1d3d ecf0 fdbd
00000270: 14bc 73bd 0aca 5fbd 555c c5bd 9e4b 9b3c
00000280: 9284 ecbc e5ea 03bc 6b4f b8bc b7a3 95bd
00000290: 233d 91bc 9fdd 9bbd 25fb fb3c 27b5 29bd
000002a0: 6d55 5e3d e76a 143d 8b8a 52bd df29 c3bc
000002b0: ebec 98bd eddd 753d f4ae 18bd 4077 8fbc
000002c0: 6676 c93b c0a6 253d d591 cbbc 4253 273d
000002d0: f3fb 8abc bb2b b73c 6bbb a73c f598 afbd
000002e0: 0bd7 8cbd 7170 3bbd 5e86 d0bc 8bf6 453d
000002f0: 0e5d 213c e004 1fbc 6b7a f23d 0b45 9c3c
00000300: 8998 d53d a278 0b3e bf12 043d 9627 223c
00000310: 02be 5abc 2c05 773d eff3 863d dd5f 413d
00000320: 62c0 9b3d 153d 213d 0128 063d 967c 3bbc
00000330: 97b0 8abd 15cc 3fbc fba3 8f3d f071 853d
00000340: c095 cc3c 005a 523d 728b 78ba 7645 b4bd
00000350: 1753 febd f430 c6bd 4050 10bd 0baf 67bc
00000360: 6132 0a3d 7905 833d 8294 10bd 7f6e 673d
00000370: de1f c63c c548 5abd 6775 68bd 96ab 243d
00000380: b8cc a53d d37a 5bbd 7cdc db3c 2ba9 95bd
00000390: 93d9 2e3d b3b2 be3c 69f0 61b8 2aec 9e3c
000003a0: ddc2 c63c f417 743d aca1 1e3c b8bd 863c
000003b0: 598c 353d f9b3 dc3c 47ba 75bd 10a3 e5bc
000003c0: 8ce7 743d c430 b0bc af83 8c3d f49d 77bd
000003d0: cd3b 213e cb16 a6bd 610c f33c 0c38 ecbb
000003e0: 72a3 5a3d 9b1c bd3c 1b97 e73d b9b2 5e3b
000003f0: 7883 e03b ee82 b93c 5465 953d 2d0a 96bc

conv3.bias f4 [12]
-0.026113415 0.0021416545 0.030647494 0.019660933 -0.034619823 0.05088669 0.020162253 -0.025941798
0.051758055 0.030284408 0.04395071 0.06483451
00000000: cdeb d5bc 005b 0c3b 7410 fb3c f70f a13c
00000010: 84cd 0dbd 906e 503d 4f2b a53c e583 d4bc
00000020: 4100 543d 0217 f83c a905 343d f5c7 843d

exp_avg f4 [32, 3, 5, 5]
0.00024158563 9.2608134e-05 0.00017655216 0.00018158495 0.00013605069 0.0001359819 5.4207725e-05 3.7816433e-05
4.5885772e-05 0.00016022417 0.0001319316 7.289812e-05 0.000102827085 3.778253e-05 6.49495e-05 0.00020455745
0.00011113528 3.0893625e-05 0.00019033061 9.0403235e-05 0.00012140924 0.00020131147 0.00014861321 0.00012642876
9.302633e-05 7.982811e-05 -2.935974e-05 6.328083e-05 5.7010897e-05 1.7464306e-05 4.5937133e-05 1.2916125e-05
-4.1814606e-06 -1.0240508e-05 0.00010438282 2.7463231e-05 1.4977999e-06 4.2870506e-05 -1.9074714e-05 2.7273677e-06
6.1070634e-05 -1.8225155e-05 -0.00011128994 5.2699394e-05 -2.470703e-05 -1.576248e-05 7.000973e-05 -5.025297e-06
-2.9292136e-05 -3.4410914e-05 -1.00737225e-05 -0.00010311292 -7.734646e-06 -8.341485e-06 -3.9137052e-05 -4.137305e-06
-1.2421962e-05 -2.8671064e-05 -3.892951e-05 5.904184e-05 -4.2516394e-06 3.0385747e-06 6.0695213e-05 1.3387191e-05
-1.6181635e-05 2.9512157e-05 -2.361124e-05 -6.0588554e-05 0.00010387942 -2.719741e-05 -1.6412916e-05 3.8679977e-05
-1.6256801e-05 -4.213374e-05 -7.748288e-05 -0.00023094854 -0.00018453969 -0.00013112894 -0.00016916316 -0.00024296535
-0.00015440691 -5.321223e-05 -0.00014275612 -0.00019662116 -0.00017730216 -0.0001287748 -0.00025151682 -9.511631e-05
-0.00020534634 -0.00019518145 -0.00023991455 -9.5724936e-05 -0.00023979894 -0.00014892417 -0.00017623979 -0.0002485661
-0.00016316496 -0.00016402107 -0.00023957161 -0.00029007974 -2.2937616e-05 -2.4079227e-05 1.4393835e-05 -2.7753153e-05
-0.000117391886 -3.595246e-05 5.886547e-05 -1.0814938e-05 -5.554922e-05 -8.721737e-05 5.0894756e-05 -6.945391e-05
0.00013179914 -1.245827e-05 -9.783706e-05 1.7321277e-06 0.00011471472 -1.0762515e-05 5.499267e-05 -1.8462226e-05
-3.636413e-05 3.607634e-06 1.8081953e-05 -2.0357862e-05 -5.7566827e-05 5.0199735e-05 4.9598224e-05 7.794624e-05
1.1866924e-05 -7.360386e-05 -2.9231327e-05 2.6606936e-05 -3.4626417e-05 -3.0483325e-05 -6.0544954e-07 5.436245e-05
-0.00011266492 6.62581e-05 -3.738807e-05 -1.325041e-05 6.0359507e-05 0.00012757338 -3.2559426e-05 2.3723194e-05
5.7663085e-05 1.643613e-05 8.249154e-05 0.00011052102 7.335812e-05 8.0396996e-05 9.927162e-05 8.6482876e-05
0.0001940774 0.00013297451 0.00019643402 0.00013001935 8.1361344e-05 -0.00013022823 0.00011368662 9.096891e-05
6.134099e-05 -6.845581e-05 0.00010680024 3.1521842e-05 3.0824252e-05 0.00010304561 0.0001836598 2.78726e-05
0.000115915136 0.00018462953 0.00015691799 0.000111185596 0.00020620607 7.617104e-05 8.022855e-05 -3.0177402e-05
-1.1647378e-05 7.740475e-05 -2.4454397e-05 5.8205704e-05 4.4205775e-05 6.1761835e-05 -0.00015352847 4.0898136e-05
-1.680628e-06 2.217263e-05 -6.98211e-05 9.7440185e-05 -4.1114777e-06 -1.9925274e-06 5.7884616e-05 0.00012653365
-5.90406e-05 3.68684e-05 0.00014645125 9.627671e-05 4.227468e-05 0.00012922492 3.937376e-06 3.248619e-05
-9.725283e-05 -1.5263331e-05 7.587571e-05 -6.873025e-05 -2.1674989e-05 2.5916552e-05 0.00014192404 -4.395161e-05
8.792252e-05 -2.4015264e-05 -5.570062e-07 -3.0289764e-06 0.00015831774 2.3970437e-05 -2.9358125e-05 -1.7664648e-05
8.076187e-05 -7.6887496e-05 -2.4183995e-05 4.5999936e-05 -6.5377053e-06 -2.2703327e-05 8.848748e-05 -7.9136546e-05
-9.678312e-05 -3.603462e-05 -2.1773905e-05 -2.2187141e-05 -4.4356108e-05 -9.3317896e-05 2.077262e-06 1.5886824e-05
1.9859013e-05 7.3709216e-06 -3.97828e-05 1.9240856e-06 1.5850937e-05 2.2106475e-05 1.8656825e-05 -1.1699252e-05
-2.1502687e-05 -2.6276632e-06 6.645762e-06 1.1437546e-05 -8.6922404e-07 -6.30244e-05 -4.0113846e-05 -2.3972325e-05
-6.0160755e-06 -2.7519443e-06 -4.8037808e-05 -5.157137e-05 -5.4929165e-05 -6.6392844e-05 -9.246802e-05 -1.4597107e-05
00000000: 2652 7d39 9d36 c238 dc20 3939 d767 3e39
00000010: d4a8 0e39 5d96 0e39 1a5d 6338 169d 1e38
00000020: 7975 4038 d901 2839 1f57 0a39 e1e0 9838
00000030: dfa4 d738 af78 1e38 7f35 8838 797e 5639
00000040: 4d11 e938 c793 0138 7c93 4739 de96 bd38
00000050: 179d fe38 2317 5339 0ed5 1b39 f691 0439
00000060: 2117 c338 6469 a738 9049 f6b7 a3b5 8438
00000070: fc1e 6f38 5080 9237 9fac 4038 56b2 5837
00000080: 794e 8cb6 a6ce 2bb7 1ae8 da38 d760 e637
00000090: 0308 c935 dbcf 3338 a302 a0b7 d207 3736
000000a0: 0c13 8038 39e2 98b7 5564 e9b8 8b09 5d38
000000b0: f141 cfb7 ab39 84b7 30d2 9238 f99e a8b6
000000c0: 62b8 f5b7 7054 10b8 4f02 29b7 543e d8b8
000000d0: 0dc4 01b7 68f2 0bb7 1727 24b8 2ed3 8ab6
000000e0: ec67 50b7 a482 f0b7 3e48 23b8 b1a3 7738
000000f0: 4ea9 8eb6 51ea 4b36 fd92 7e38 8c99 6037
00000100: ccbd 87b7 e090 f737 c010 c6b7 7720 7eb8
00000110: d7d9 d938 fe25 e4b7 78ae 89b7 4f3c 2238
00000120: 375f 88b7 c2b8 30b8 4e7e a2b8 c72a 72b9
00000130: ff80 41b9 a87f 09b9 6461 31b9 84c4 7eb9
00000140: 4ae8 21b9 3230 5fb8 ceb0 15b9 172c 4eb9
00000150: 30ea 39b9 b907 07b9 04de 83b9 2e79 c7b8
00000160: 3d52 57b9 9fa9 4cb9 9291 7bb9 efbf c8b8
00000170: 8a72 7bb9 8728 1cb9 02cd 38b9 fa51 82b9
00000180: 4317 2bb9 12fd 2bb9 8435 7bb9 d815 98b9
00000190: 286a c0b7 bffd c9b7 0d7d 7137 71cf e8b7
000001a0: 4a30 f6b8 a9cb 16b8 51e6 7638 ce71 35b7
000001b0: 85fd 68b8 78e8 b6b8 d477 5538 c9a7 91b8
000001c0: 9033 0a39 dd03 51b7 df2d cdb8 747b e835
000001d0: ff92 f038 a690 34b7 eea7 6638 54df 9ab7
000001e0: b085 18b8 ae1a 7236 b3ae 9737 2dc6 aab7
000001f0: e973 71b8 8e8d 5238 b007 5038 1277 a338
00000200: 0d18 4737 c55b 9ab8 cc35 f5b7 f631 df37
00000210: d53b 11b8 71b6 ffb7 2d86 22b5 3c03 6438
00000220: 8546 ecb8 0cf4 8a38 22d1 1cb8 144e 5eb7
00000230: 872a 7d38 38c5 0539 6b90 08b8 2c01 c737
00000240: 44db 7138 52e0 8937 4fff ac38 85c7 e738
00000250: d7d7 9938 cf9a a838 0c30 d038 245e b538
00000260: 4181 4b39 136f 0b39 dbf9 4d39 ce55 0839
00000270: 8aa0 aa38 e08d 08b9 0a6b ee38 90c6 be38
00000280: 31a4 8038 ef8f 8fb8 f1f9 df38 5236 0438
00000290: 4a49 0138 311a d838 cd94 4039 f4cf e937
000002a0: 7717 f338 1d99 4139 5a8a 2439 502c e938
000002b0: 0539 5839 04be 9f38 6040 a838 7a25 fdb7
000002c0: 1c69 43b7 5c54 a238 6b23 cdb7 e621 7438
000002d0: 9769 3938 2286 8138 7cfc 20b9 0a8a 2b38
000002e0: f091 e1b5 5cff b937 eb6c 92b8 cd58 cc38
000002f0: 53f5 89b6 5cb7 05b6 22c9 7238 1eae 0439
00000300: 5da2 77b8 25a3 1a38 b590 1939 2ae8 c938
00000310: 1850 3138 8d80 0739 cd1d 8436 c841 0838
00000320: 37f4 cbb8 c109 80b7 761f 9f38 4623 90b8
00000330: afd2 b5b7 5f67 d937 72d1 1439 af58 38b8
00000340: 0b63 b838 6374 c9b7 2d85 15b5 6b45 4bb6
00000350: 1802 2639 1f14 c937 1846 f6b7 8b2e 94b7
00000360: b35e a938 a93e a1b8 bcde cab7 0ef0 4038
00000370: 765e dbb6 0673 beb7 5b92 b938 1cf6 a5b8
00000380: 0bf8 cab8 e123 17b8 1ba7 b6b7 861e bab7
00000390: 020b 3ab8 aab3 c3b8 1767 0b36 b244 8537
000003a0: e896 a637 bc53 f736 75dc 26b8 8a1f 0136
000003b0: a1f7 8437 4b71 b937 3a81 9c37 e847 44b7
000003c0: ab60 b4b7 e956 30b6 a9fe de36 e3e3 3f37
000003d0: 9f54 69b5 f82b 84b8 ea3f 28b8 2d18 c9b7
000003e0: b2dd c9b6 0bae 38b6 347c 49b8 564e 58b8
000003f0: be63 66b8 633c 8bb8 64eb c1b8 19e6 74b7

exp_avg_sq f4 [32, 3, 5, 5]
2.1633632e-07 2.0567798e-07 2.0734986e-07 2.0646652e-07 2.0376064e-07 2.0519279e-07 2.1222637e-07 2.1446357e-07
2.1279973e-07 2.0555487e-07 2.0879565e-07 2.1633116e-07 2.1446392e-07 2.1529729e-07 2.1113713e-07 2.1260996e-07
2.1136384e-07 2.2670979e-07 2.1449972e-07 2.0878157e-07 2.0700593e-07 2.145453e-07 2.086547e-07 2.0742944e-07
2.0686338e-07 5.243484e-07 5.279354e-07 5.239766e-07 5.221668e-07 5.207883e-07 5.2534705e-07 5.283035e-07
5.287692e-07 5.2697055e-07 5.277158e-07 5.302134e-07 5.372407e-07 5.3700245e-07 5.316463e-07 5.277815e-07
5.291981e-07 5.359864e-07 5.600242e-07 5.2992516e-07 5.291966e-07 5.3042186e-07 5.2944966e-07 5.3001196e-07
5.2925395e-07 5.2769417e-07 9.2116267e-07 9.382898e-07 9.232669e-07 9.2275616e-07 9.229082e-07 9.250818e-07
9.3002126e-07 9.313996e-07 9.312603e-07 9.238306e-07 9.2992633e-07 9.376999e-07 9.404156e-07 9.325896e-07
9.30237e-07 9.2743096e-07 9.361281e-07 9.46722e-07 9.364543e-07 9.292089e-07 9.2684564e-07 9.273251e-07
9.3084975e-07 9.306799e-07 9.3350536e-07 5.793008e-07 5.7684025e-07 5.8138664e-07 5.7803857e-07 5.818106e-07
5.7215885e-07 5.8054366e-07 5.6716465e-07 5.678931e-07 5.6902127e-07 5.6815924e-07 5.696835e-07 5.7694723e-07
5.6775536e-07 5.6450693e-07 5.7732774e-07 5.8088057e-07 5.7105603e-07 5.661175e-07 5.6792123e-07 5.8340106e-07
5.864342e-07 5.856378e-07 5.7908375e-07 5.8660345e-07 3.9071654e-07 3.929772e-07 3.9513412e-07 3.965045e-07
4.086022e-07 3.8717698e-07 3.8833454e-07 3.8785902e-07 3.9541794e-07 4.0145275e-07 3.8618387e-07 3.9464865e-07
4.129525e-07 3.9820986e-07 4.060865e-07 3.9327907e-07 4.027218e-07 3.8775028e-07 3.8989097e-07 3.9080805e-07
3.9789953e-07 4.0021922e-07 3.9901946e-07 3.932593e-07 3.9738165e-07 3.2511227e-07 3.254255e-07 3.3035641e-07
3.2566768e-07 3.311771e-07 3.2657027e-07 3.2434536e-07 3.2782697e-07 3.2868286e-07 3.2403386e-07 3.2405242e-07
3.4278418e-07 3.3336596e-07 3.325448e-07 3.262288e-07 3.2645912e-07 3.3680155e-07 3.2392003e-07 3.2216113e-07
3.2336519e-07 3.261324e-07 3.3903532e-07 3.4204152e-07 3.296023e-07 3.29201e-07 2.0385079e-07 2.0382194e-07
2.1246412e-07 2.0579851e-07 2.1400389e-07 2.050478e-07 2.0563473e-07 2.66775e-07 2.0691064e-07 2.0571649e-07
2.0983539e-07 2.3443836e-07 2.1487459e-07 2.1065682e-07 2.1212891e-07 2.0630513e-07 2.1897151e-07 2.1320648e-07
2.0773281e-07 2.1469106e-07 2.0717665e-07 2.0607068e-07 2.1998225e-07 2.0518686e-07 2.04588e-07 2.4894717e-07
2.4885918e-07 2.5074507e-07 2.5532816e-07 2.4930483e-07 2.4829077e-07 2.5181023e-07 3.0340837e-07 2.5126022e-07
2.5377136e-07 2.5611587e-07 2.7108936e-07 2.6587472e-07 2.5535596e-07 2.5588494e-07 2.4973505e-07 2.6315476e-07
2.6421526e-07 2.5307114e-07 2.6200814e-07 2.4996362e-07 2.4897565e-07 2.5967995e-07 2.49859e-07 2.4676729e-07
3.5617913e-07 3.4674068e-07 3.4714182e-07 3.5877272e-07 3.4943923e-07 3.4511035e-07 3.6056312e-07 3.6281799e-07
3.5214129e-07 3.5306513e-07 3.5168406e-07 3.572156e-07 3.7350935e-07 3.548911e-07 3.567485e-07 3.5138197e-07
3.5653142e-07 3.657322e-07 3.56899e-07 3.4888748e-07 3.4917326e-07 3.4996526e-07 3.5342165e-07 3.6113437e-07
3.6099087e-07 5.5684626e-09 4.547095e-09 4.421559e-09 4.951505e-09 8.50217e-09 4.72532e-09 4.3030184e-09
4.3312904e-09 4.1968424e-09 5.1141984e-09 4.5848068e-09 4.085124e-09 4.1600736e-09 4.0525348e-09 4.2809876e-09
4.8127227e-09 3.8157424e-09 3.7673233e-09 3.8813868e-09 4.423957e-09 7.878206e-09 5.3740776e-09 4.7022954e-09
4.781274e-09 5.9528142e-09 1.6405584e-08 1.5672471e-08 1.561579e-08 1.6119202e-08 1.8630304e-08 1.5705448e-08
00000000: 134a 6834 55d8 5c34 e5a3 5e34 16b1 5d34
00000010: 4cc9 5a34 f752 5c34 57e0 6334 4c47 6634
00000020: f27d 6434 7eb6 5c34 5031 6034 a848 6834
00000030: 6547 6634 782c 6734 efb4 6234 c849 6434
00000040: 40f3 6234 836d 7334 3c51 6634 712d 6034
00000050: 5b45 5e34 c35d 6634 910a 6034 c5b9 5e34
00000060: 2c1e 5e34 f3c0 0c35 72b7 0d35 66a7 0c35
00000070: 072b 0c35 4dcc 0b35 9305 0d35 bdd0 0d35
00000080: bef0 0d35 2475 0d35 5ba8 0d35 fd53 0e35
00000090: e636 1035 8726 1035 75b6 0e35 deac 0d35
000000a0: 370e 0e35 b4e0 0f35 9254 1635 2e40 0e35
000000b0: 1d0e 0e35 5062 0e35 811f 0e35 2546 0e35
000000c0: 0e12 0e35 dea6 0d35 d145 7735 c9de 7b35
000000d0: 6bd6 7735 52b3 7735 c5bd 7735 2353 7835
000000e0: 93a6 7935 4b05 7a35 b8fb 7935 28fd 7735
000000f0: 0da0 7935 3fb6 7b35 de70 7c35 1257 7a35
00000100: 66b5 7935 92f4 7835 3c4a 7b35 3e22 7e35
00000110: a660 7b35 c06e 7935 59cc 7835 4ced 7835
00000120: 82df 7935 d6d3 7935 0096 7a35 3f81 1b35
00000130: 29d8 1a35 9610 1c35 822a 1b35 b82d 1c35
00000140: 7596 1935 a8d6 1b35 423f 1835 5171 1835
00000150: d8be 1835 9b83 1835 5aec 1835 83df 1a35
00000160: da67 1835 9f88 1735 a9f9 1a35 cfed 1b35
00000170: ac4a 1935 4cf7 1735 4073 1835 049b 1c35
00000180: 746b 1d35 b934 1d35 5572 1b35 1577 1d35
00000190: acc3 d134 60fa d234 d222 d434 2adf d434
000001a0: dc5d db34 33dd cf34 4b7c d034 f03a d034
000001b0: d449 d434 3f87 d734 b554 cf34 19e0 d334
000001c0: c2b3 dd34 8cc9 d534 1b04 da34 dd23 d334
000001d0: aa35 d834 fe2b d034 3552 d134 40d0 d134
000001e0: e59e d534 b6dd d634 d138 d634 2621 d334
000001f0: b857 d534 178b ae34 24b6 ae34 d75b b134
00000200: 6dd7 ae34 a2cc b134 7a53 af34 b021 ae34
00000210: 3200 b034 d475 b034 e0f6 ad34 6df9 ad34
00000220: e607 b834 78f9 b234 9c88 b234 8b24 af34
00000230: 3344 af34 a7d1 b434 3be7 ad34 7df5 ac34
00000240: f99a ad34 4c17 af34 a904 b634 d4a1 b734
00000250: 32f4 b034 0abd b034 14e2 5a34 26da 5a34
00000260: b121 6434 77f9 5c34 f1c8 6534 1c2b 5c34
00000270: 72cc 5c34 4739 8f34 2a2b 5e34 ebe2 5c34
00000280: 1d4f 6134 edb9 7b34 47b8 6634 e830 6234
00000290: 8dc5 6334 b984 5d34 6e1e 6b34 c0ed 6434
000002a0: 290d 5f34 d485 6634 4974 5e34 4744 5d34
000002b0: 4334 6c34 5651 5c34 b9ac 5b34 0aa7 8534
000002c0: f29a 8534 249e 8634 0914 8934 32d8 8534
000002d0: d34c 8534 8930 8734 21e4 a234 f1e4 8634
000002e0: 123e 8834 4c80 8934 3d8a 9134 8bbd 8e34
000002f0: db17 8934 8f60 8934 5313 8634 b747 8d34
00000300: 78d9 8d34 d5dd 8734 20aa 8c34 bd32 8634
00000310: f4aa 8534 246a 8b34 5c24 8634 707b 8434
00000320: e338 bf34 ad27 ba34 cf5e ba34 599d c034
00000330: 909a bb34 9b47 b934 6b93 c134 53c9 c234
00000340: ee0d bd34 e78c bd34 17cf bc34 57c7 bf34
00000350: bc86 c834 dd87 be34 2487 bf34 92a5 bc34
00000360: 4e69 bf34 da59 c434 d39b bf34 bb4e bb34
00000370: 0276 bb34 dce2 bb34 e7bd bd34 eee1 c134
00000380: 35ce c134 b754 bf31 ac3c 9c31 72ec 9731
00000390: e621 aa31 f010 1232 5b5c a231 c0d9 9331
000003a0: 6fd2 9431 d133 9031 f7b8 af31 6388 9d31
000003b0: 215d 8c31 65f0 8e31 793e 8b31 f717 9331
000003c0: 285d a531 a01b 8331 ba71 8131 0a5d 8531
000003d0: 8a01 9831 b758 0732 e3a6 b831 d491 a131
000003e0: 8848 a431 8289 cc31 43ec 8c32 21a0 8632
000003f0: 7c23 8632 8076 8a32 7908 a032 a5e8 8632

exp_avg f4 [32]
0.00023497884 -0.00080537604 0.00046974258 -0.000968493 9.090715e-05 -0.0005881275 0.000191172 4.9343827e-05
-0.00013473225 9.348229e-06 -0.0003735661 -0.00091233174 0.00010736958 0.00024434715 -7.976668e-05 -0.00012810942
-0.00011243803 0.00025398133 0.00014828217 0.000543537 9.5439835e-05 -0.00014368027 -0.00043659128 -8.9723886e-05
0.0002535891 -0.0005232111 7.8401885e-05 -0.00063398684 -8.42048e-06 -0.00069586333 0.00014641027 3.0010755e-05
00000000: a764 7639 df1f 53ba c847 f639 77e2 7dba
00000010: 68a5 be38 922c 1aba 5875 4839 88f6 4e38
00000020: ea46 0db9 56d6 1c37 31db c3b9 8c29 6fba
00000030: 9b2b e138 b81b 8039 6948 a7b8 1c55 06b9
00000040: b5cc ebb8 cc28 8539 317c 1b39 277c 0e3a
00000050: df26 c838 e1a8 16b9 4ae6 e4b9 252a bcb8
00000060: 27f4 8439 1a28 09ba b16b a438 2332 26ba
00000070: b045 0db7 996a 36ba b585 1939 9bbf fb37

exp_avg_sq f4 [32]
2.8114837e-06 3.6704075e-06 1.994514e-06 7.845464e-06 3.1731831e-06 8.867261e-06 1.1532387e-06 9.0656135e-07
2.0383399e-07 6.4174213e-07 3.7538846e-06 1.0492809e-05 1.3588333e-06 4.4085537e-06 1.0182637e-06 2.5008924e-06
8.1491925e-07 1.985103e-06 9.727576e-07 3.4314546e-06 1.5174985e-06 6.65649e-07 6.935899e-06 3.8293847e-06
2.4765232e-06 3.4513205e-06 4.538823e-06 8.217951e-06 5.9843376e-07 1.946771e-05 1.1309051e-05 1.3167502e-06
00000000: ecac 3c36 1f51 7636 7dd9 0536 03a0 0337
00000010: dff2 5436 99c4 1437 fbc8 9a35 6c5a 7335
00000020: 76dd 5a34 2f44 2c35 3feb 7b36 460a 3037
00000030: 2861 b635 30ed 9336 46ab 8835 01d5 2736
00000040: d3c0 5a35 cf37 0536 b28f 8235 f147 6636
00000050: daac cb35 0daf 3235 ebba e836 2a7e 8036
00000060: 5832 2636 3c9d 6736 314c 9836 d5df 0937
00000070: 0ea4 2035 974e a337 01bc 3d37 31bb b035

exp_avg f4 [16, 32, 3, 3]
1.8312807e-05 0.0001606315 0.00011755811 1.5746052e-06 7.318426e-05 -4.7693275e-06 3.7281658e-05 -3.8101047e-05
0.00012017919 0.00013977308 0.00019520975 0.00024501808 9.738261e-05 5.5987784e-05 9.376866e-05 3.7673413e-05
-3.0613966e-05 1.747295e-05 -1.4940892e-05 6.060163e-05 5.1816933e-05 -3.230778e-05 -3.535077e-05 3.2437532e-05
-4.029479e-05 -1.4533252e-05 1.2836351e-05 3.7834175e-06 2.9919106e-06 -1.0412077e-07 8.250267e-06 1.07279075e-05
9.728827e-06 1.0031651e-05 1.3199635e-05 1.0616432e-05 0.0001766494 0.00014061276 0.00022865088 9.062785e-05
8.350874e-05 0.00010840507 0.00010789451 -3.3744698e-05 5.7954658e-05 -1.3761259e-07 0.000106925945 4.22412e-05
1.1378334e-05 3.93849e-05 -2.8619346e-05 5.1392508e-05 1.2779254e-05 8.462799e-05 0.00012161888 0.00010883435
5.8747934e-05 -6.1453706e-05 2.5361844e-05 -6.972195e-05 -0.000104917126 -6.648805e-05 -3.3554174e-05 1.293261e-05
0.0001443351 7.574675e-05 4.220595e-05 7.451544e-05 1.2642032e-05 0.00011944468 1.473317e-05 -8.9439175e-07
-1.07956175e-05 1.9817568e-05 4.2931504e-05 -3.3106597e-05 -2.4108986e-05 3.0991876e-07 -3.9808456e-05 6.7880326e-05
-4.4850694e-05 7.801752e-05 0.00012437464 0.00012977757 -6.4347205e-06 1.2637827e-05 8.530027e-05 8.8197216e-05
2.8276792e-05 6.9945076e-05 0.00010115217 3.5024306e-05 8.183515e-05 0.000109297114 -3.0896251e-06 -9.97383e-06
0.00013127991 -5.5394237e-05 4.5343746e-05 -9.7146636e-05 3.274237e-05 1.2315646e-05 -3.2740336e-05 -4.572826e-05
5.0502786e-05 1.6690848e-05 -9.4666575e-05 6.546874e-05 6.634792e-05 5.9817492e-05 4.8305676e-05 4.346076e-05
3.585631e-05 9.124859e-05 1.1068889e-05 2.1569844e-05 -4.898034e-05 4.596995e-05 6.515004e-05 2.5640926e-05
2.7849352e-05 4.7172354e-05 -3.995704e-06 8.8418645e-05 4.4527042e-07 0.00011901741 0.0001098295 3.1933603e-05
8.365386e-05 -8.428273e-06 1.4005599e-05 6.242074e-05 -1.534717e-05 4.335074e-05 7.051996e-05 -0.00012867615
-9.233381e-05 1.3951353e-05 -9.4864845e-06 -4.908414e-05 8.163465e-05 4.0838924e-05 -8.904282e-05 -1.755951e-05
-9.370717e-06 3.6745674e-05 -9.743732e-06 5.1604193e-06 -4.7242665e-05 -1.8940436e-05 3.8725913e-05 -5.2455092e-05
9.691962e-06 9.028583e-06 2.2125674e-05 0.00014236402 3.787683e-05 -4.2764957e-05 4.028167e-05 4.8726608e-05
2.0108526e-05 9.045796e-05 4.6870173e-06 -2.4710505e-05 -1.6612505e-05 -3.882981e-05 -4.5440476e-05 -5.2394807e-05
-1.0886181e-05 -9.130109e-05 2.0340949e-05 -5.8881982e-05 -2.3867278e-07 -1.6759437e-05 -3.6574238e-05 -4.6277637e-05
-2.5584894e-05 -3.152017e-05 -7.453858e-05 -4.171099e-05 0.0001494922 7.966762e-05 0.00012481085 6.264975e-05
2.2115082e-06 5.9019734e-05 4.0458825e-05 4.825056e-05 5.0058847e-05 -8.2972265e-06 -1.1041074e-06 -1.13649885e-05
-1.891025e-05 -9.452005e-06 -2.842772e-05 5.795988e-05 -3.9089857e-05 1.1657756e-05 -5.7600424e-05 -8.941553e-06
-4.3813583e-05 -2.7611912e-05 -8.345737e-05 -1.1435842e-05 -2.714628e-05 -9.029227e-06 -1.2159423e-05 7.44044e-05
2.6888145e-05 2.252278e-05 3.3892167e-05 3.2497508e-05 -5.6754925e-06 8.328426e-05 9.777251e-05 1.2945334e-05
1.5987027e-05 7.322459e-05 6.455895e-05 -4.152801e-05 3.5478704e-05 -3.545124e-05 -5.9348185e-05 -1.1111508e-05
-2.5871355e-05 3.3032036e-05 9.162015e-05 4.1890093e-05 -1.2136103e-05 4.946477e-05 -1.8000817e-05 -2.7198652e-05
8.1194434e-05 -5.3745185e-05 4.8828126e-05 -2.9792134e-06 5.7646637e-05 7.2757307e-06 -8.835041e-05 -2.4423965e-05
-6.73867e-05 -0.00015754018 3.2874985e-05 -2.3996628e-05 1.0656806e-05 4.4490695e-05 -2.120241e-05 1.9022795e-05
2.8745566e-05 -1.8616878e-05 -3.0749286e-06 2.8598237e-05 -1.4855402e-05 1.2042622e-05 7.1909286e-05 -1.8209856e-05
00000000: 749e 9937 316f 2839 8889 f638 0657 d335
00000010: 807a 9938 3608 a0b6 e05e 1c38 b0ce 1fb8
00000020: b608 fc38 0d90 1239 38b1 4c39 c575 8039
00000030: e439 cc38 6dd4 6a38 aaa5 c438 8503 1e38
00000040: 7f67 00b8 e092 9237 a4aa 7ab7 812e 7e38
00000050: 0256 5938 3782 07b8 9a45 14b8 890d 0838
00000060: 3402 29b8 d8d3 73b7 b55b 5737 9ee6 7d36
00000070: a2c8 4836 0099 dfb3 a06a 0a37 03fc 3337
00000080: fe38 2337 9d4d 2837 0074 5d37 3a1d 3237
00000090: f63a 3939 7371 1339 01c2 6f39 750f be38
000000a0: 6a21 af38 8757 e338 6d45 e238 1889 0db8
000000b0: 5714 7338 a9c2 13b4 6e3d e038 252c 3138
000000c0: 93e5 3e37 3731 2538 9413 f0b7 498e 5738
000000d0: 7a66 5637 4e7a b138 a40d ff38 ff3d e438
000000e0: 1d68 7638 b5e0 80b8 25c0 d437 b037 92b8
000000f0: f406 dcb8 806f 8bb8 85bc 0cb8 23f9 5837
00000100: a958 1739 3ada 9e38 4b06 3138 2c45 9c38
00000110: 1d19 5437 607e fa38 7c2e 7737 2216 70b5
00000120: d31e 35b7 e73d a637 5a11 3438 f0db 0ab8
00000130: a73d cab7 e962 a634 01f8 26b8 f95a 8e38
00000140: 111e 3cb8 569d a338 906a 0239 e714 0839
00000150: d4e9 d7b6 0e07 5437 3ce3 b238 85f6 b838
00000160: f333 ed37 7aaf 9238 a821 d438 10e7 1238
00000170: e99e ab38 7136 e538 5b57 4fb6 4655 27b7
00000180: 2fa8 0939 1c57 68b8 7a2f 3e38 34bb cbb8
00000190: da54 0938 4c9f 4e37 ab52 09b8 58cc 3fb8
000001a0: f4d2 5338 5303 8c37 bb87 c6b8 434c 8938
000001b0: 4524 8b38 8be4 7a38 d39b 4a38 a349 3638
000001c0: 6b64 1638 b75c bf38 84b4 3937 e3f0 b437
000001d0: 3d70 4db8 dccf 4038 29a1 8838 7817 d737
000001e0: 079e e937 eeda 4538 d612 86b6 666d b938
000001f0: 800d ef34 fc98 f938 4454 e638 72f0 0538
00000200: 536f af38 2867 0db7 97f9 6a37 e1e7 8238
00000210: ccbd 80b7 81d3 3538 1ee4 9338 3eed 06b9
00000220: 56a3 c1b8 9b10 6a37 2428 1fb7 b2df 4db8
00000230: 4533 ab38 764a 2b38 80bc bab8 c34c 93b7
00000240: ec36 1db7 5e1f 1a38 0379 23b7 aa27 ad36
00000250: 6d26 46b8 47e2 9eb7 a26d 2238 3a03 5cb8
00000260: a99a 2237 7879 1737 869a b937 8d47 1539
00000270: f0dd 1e38 865e 33b8 1df4 2838 cc5f 4c38
00000280: bbae a837 3fb4 bd38 2c45 9d36 6849 cfb7
00000290: 155b 8bb7 31dd 22b8 5797 3eb8 7fc2 5bb8
000002a0: cba3 36b7 e678 bfb8 dba1 aa37 0cf8 76b8
000002b0: f022 80b4 9e96 8cb7 4a67 19b8 3c1a 42b8
000002c0: 249f d6b7 8634 04b8 9851 9cb8 d6f2 2eb8
000002d0: 02c1 1c39 3a13 a738 a8df 0239 d462 8338
000002e0: 6c69 1436 f58b 7738 55b2 2938 a560 4a38
000002f0: 47f6 5138 5134 0bb7 d730 94b5 41ac 3eb7
00000300: 74a1 9eb7 0d94 1eb7 1078 eeb7 f319 7338
00000310: 6af4 23b8 ae95 4337 fc97 71b8 ad03 16b7
00000320: 7ac4 37b8 21a0 e7b7 d605 afb8 91dc 3fb7
00000330: 31b8 e3b7 3c7c 17b7 5300 4cb7 8f09 9c38
00000340: da8d e137 4def bc37 7027 0e38 ef4d 0838
00000350: 1c70 beb6 e6a8 ae38 370b cd38 c92f 5937
00000360: e11b 8637 2790 9938 d363 8738 5c2e 2eb8
00000370: f8ce 1438 7bb1 14b8 a1ec 78b8 906b 3ab7
00000380: 5006 d9b7 e18b 0a38 3224 c038 25b3 2f38
00000390: 2a9c 4bb7 6478 4f38 7600 97b7 a928 e4b7
000003a0: ee46 aa38 746c 61b8 cdcc 4c38 7fee 47b6
000003b0: 9bc9 7138 0d22 f436 c448 b9b8 11e2 ccb7
000003c0: f651 8db8 5f31 25b9 3fe3 0938 5e4c c9b7
000003d0: a2ca 3237 859b 3a38 d4db b1b7 2493 9f37
000003e0: a222 f137 712b 9cb7 df5a 4eb6 3fe6 ef37
000003f0: 773b 79b7 ab0a 4a37 01ce 9638 5ec1 98b7

exp_avg_sq f4 [16, 32, 3, 3]
1.8678569e-06 1.8849644e-06 1.8704218e-06 1.8724361e-06 1.8777391e-06 1.8741027e-06 1.8738866e-06 1.8809104e-06
1.882561e-06 8.8606635e-07 8.93514e-07 9.058605e-07 8.8559943e-07 8.8405886e-07 8.796385e-07 8.8694446e-07
8.9805854e-07 8.8503424e-07 6.869768e-07 6.8998816e-07 6.879708e-07 6.881583e-07 6.880154e-07 6.888129e-07
6.920194e-07 6.966357e-07 6.883055e-07 3.042614e-09 3.0730645e-09 3.0570295e-09 3.0727605e-09 3.158726e-09
3.1398677e-09 3.1041212e-09 3.2041583e-09 3.1689087e-09 1.1587902e-06 1.1488372e-06 1.1635505e-06 1.1513057e-06
1.1466952e-06 1.1430493e-06 1.1523675e-06 1.1617138e-06 1.1430294e-06 4.8952e-07 4.918519e-07 4.84696e-07
4.898798e-07 4.8710615e-07 4.947898e-07 4.9063146e-07 4.876588e-07 4.884534e-07 1.1311719e-06 1.1306175e-06
1.1216362e-06 1.1286444e-06 1.1205648e-06 1.1240504e-06 1.1339574e-06 1.1276147e-06 1.1252127e-06 1.3071946e-06
1.3005284e-06 1.2897098e-06 1.3109488e-06 1.3054362e-06 1.3048628e-06 1.3060244e-06 1.3016094e-06 1.3014236e-06
5.828017e-07 5.824043e-07 5.84247e-07 5.8343636e-07 5.8337235e-07 5.791435e-07 5.905374e-07 5.828386e-07
5.8175453e-07 1.0545198e-06 1.065341e-06 1.0744428e-06 1.0520333e-06 1.0540347e-06 1.0602646e-06 1.058616e-06
1.0569711e-06 1.0559337e-06 4.478504e-07 4.3998025e-07 4.3850648e-07 4.5150256e-07 4.409434e-07 4.4102336e-07
4.5751986e-07 4.4878277e-07 4.421324e-07 1.3748548e-06 1.3748053e-06 1.3720198e-06 1.3706851e-06 1.3712893e-06
1.3737643e-06 1.3688447e-06 1.3793438e-06 1.3790684e-06 2.6265116e-07 2.6082782e-07 2.5871338e-07 2.6085263e-07
2.6292636e-07 2.6468103e-07 2.6293225e-07 2.6137337e-07 2.7401234e-07 4.9668705e-07 4.94436e-07 4.924539e-07
4.976611e-07 4.9525966e-07 4.9670155e-07 5.025585e-07 4.985523e-07 4.989214e-07 8.598794e-07 8.535009e-07
8.549514e-07 8.544878e-07 8.548495e-07 8.5261365e-07 8.5933067e-07 8.5526653e-07 8.5524255e-07 4.9438347e-07
4.8535503e-07 4.797923e-07 4.8098894e-07 4.82258e-07 4.8633547e-07 4.855088e-07 4.8526476e-07 4.8202014e-07
7.32019e-07 7.2726215e-07 7.2293204e-07 7.305508e-07 7.286993e-07 7.214428e-07 7.330875e-07 7.3054724e-07
7.228483e-07 2.6125124e-06 2.610713e-06 2.6090097e-06 2.619767e-06 2.6317969e-06 2.6119963e-06 2.6178693e-06
2.6190885e-06 2.6168034e-06 4.708814e-07 4.7379694e-07 4.6972627e-07 4.779607e-07 4.821715e-07 4.7908844e-07
4.7903137e-07 4.9070945e-07 4.7891666e-07 5.718282e-07 5.672331e-07 5.717209e-07 5.69567e-07 5.695319e-07
5.6932214e-07 5.6743113e-07 5.695937e-07 5.676126e-07 3.1434301e-06 3.135719e-06 3.131142e-06 3.144648e-06
3.1536576e-06 3.1337024e-06 3.1546995e-06 3.1516834e-06 3.1412076e-06 3.4450198e-07 3.4280933e-07 3.4133757e-07
3.436464e-07 3.4129857e-07 3.4043106e-07 3.4822938e-07 3.4217402e-07 3.4163915e-07 2.8671474e-07 2.8254e-07
2.8638533e-07 2.8390642e-07 2.9483468e-07 2.809564e-07 2.8486164e-07 2.8544886e-07 2.8181185e-07 1.2718799e-06
1.2691803e-06 1.26733e-06 1.278868e-06 1.2758536e-06 1.2802275e-06 1.2917825e-06 1.2824543e-06 1.27824e-06
2.133192e-06 2.1431e-06 2.1382928e-06 2.1377796e-06 2.138769e-06 2.1404323e-06 2.1415094e-06 2.1376804e-06
2.1347628e-06 7.298086e-07 7.3408034e-07 7.301707e-07 7.3184464e-07 7.321411e-07 7.33051e-07 7.4106435e-07
7.376544e-07 7.4188046e-07 6.360861e-07 6.317708e-07 6.3636014e-07 6.387096e-07 6.4344846e-07 6.352727e-07
6.4102755e-07 6.6225147e-07 6.3742397e-07 7.0286745e-07 7.028231e-07 7.000853e-07 7.0475664e-07 7.0139413e-07
7.002769e-07 7.025548e-07 7.000116e-07 7.000535e-07 2.671751e-06 2.6745354e-06 2.667202e-06 2.6812302e-06
00000000: 13b3 fa35 e2fe fc35 340b fb35 6a50 fb35
00000010: a006 fc35 ae89 fb35 4182 fb35 9773 fc35
00000020: 4eac fc35 04da 6d35 d1d9 6f35 422a 7335
00000030: eeb9 6d35 1050 6d35 4c20 6c35 5c16 6e35
00000040: 1d12 7135 1793 6d35 b068 3835 a037 3935
00000050: feac 3835 e1b9 3835 0fb0 3835 dde6 3835
00000060: 36c3 3935 7100 3b35 fec3 3835 3b16 5131
00000070: ec2d 5331 d513 5231 9328 5331 e510 5931
00000080: 23c5 5731 4750 5531 2630 5c31 08c4 5931
00000090: ba87 9b35 bf31 9a35 4a2b 9c35 9086 9a35
000000a0: 26e8 9935 e06a 9935 0cab 9a35 2fec 9b35
000000b0: 316a 9935 8f67 0335 ce07 0435 0e1c 0235
000000c0: 4980 0335 aec1 0235 b2d1 0435 f0b3 0335
000000d0: a8e7 0235 431e 0335 c5d2 9735 b9bf 9735
000000e0: 208b 9635 ed7b 9735 5066 9635 14de 9635
000000f0: 7b32 9835 8c58 9735 0406 9735 dd72 af35
00000100: d18d ae35 171a ad35 dcf3 af35 7236 af35
00000110: bf22 af35 a84a af35 f5b2 ae35 93ac ae35
00000120: d471 1c35 8556 1c35 26d5 1c35 719d 1c35
00000130: 0b99 1c35 7076 1b35 6c85 1e35 5d74 1c35
00000140: de29 1c35 0689 8d35 d7fc 8e35 9335 9035
00000150: 9733 8d35 5b78 8d35 6a4e 8e35 c515 8e35
00000160: 40dd 8d35 9bb9 8d35 1770 f034 6d36 ec34
00000170: df6b eb34 0a66 f234 cdba ec34 cac5 ec34
00000180: 0da1 f534 3cf0 f034 375e ed34 a787 b835
00000190: f385 b835 3e26 b835 62f8 b735 240d b835
000001a0: 2f62 b835 25b9 b735 e421 b935 6e18 b935
000001b0: 8002 8d34 e707 8c34 4ce5 8a34 500b 8c34
000001c0: 5328 8d34 7c19 8e34 2229 8d34 e252 8c34
000001d0: f81b 9334 1354 0535 62b9 0435 2d31 0435
000001e0: 0397 0535 fcf1 0435 1255 0535 8fe7 0635
000001f0: 41d4 0535 9eed 0535 76d2 6635 231c 6535
00000200: d07f 6535 f45f 6535 cf78 6535 2adf 6435
00000210: c1ac 6635 7895 6535 d293 6535 c6b5 0435
00000220: 5849 0235 13cb 0035 4f1d 0135 8474 0135
00000230: b88c 0235 e953 0235 2443 0235 2c64 0135
00000240: f67f 4435 1339 4335 830f 4235 121b 4435
00000250: d69b 4335 2ca9 4135 64c9 4435 d31a 4435
00000260: c209 4235 9f52 2f36 b533 2f36 7216 2f36
00000270: 41cf 2f36 ed9d 3036 c149 2f36 a7ae 2f36
00000280: 99c3 2f36 579c 2f36 72cd fc34 285e fe34
00000290: b02e fc34 364d 0035 936e 0135 b59a 0035
000002a0: c996 0035 4cb9 0335 e78e 0035 bc7f 1935
000002b0: f643 1835 5c78 1935 59e4 1835 efe1 1835
000002c0: 85d3 1835 9251 1835 2ee6 1835 0a5e 1835
000002d0: b8f3 5236 3e6f 5236 9c20 5236 a408 5336
000002e0: 6da3 5336 994c 5236 53b5 5336 8281 5336
000002f0: 89cd 5236 fef3 b834 5b0b b834 1441 b734
00000300: 677e b834 b83b b734 7dc4 b634 48f4 ba34
00000310: 0ab4 b734 876a b734 c6ed 9934 00b0 9734
00000320: 80c0 9934 cd6b 9834 c549 9e34 5bd6 9634
00000330: 16ef 9834 cb3f 9934 ed4b 9734 76b5 aa35
00000340: b458 aa35 2119 aa35 92a5 ab35 ff3d ab35
00000350: 48d4 ab35 4f61 ad35 cb20 ac35 fe8f ab35
00000360: f627 0f36 2dd2 0f36 977f 0f36 c676 0f36
00000370: c687 0f36 59a4 0f36 dab6 0f36 1275 0f36
00000380: f242 0f36 11e8 4335 9e0d 4535 f300 4435
00000390: fb73 4435 5a88 4435 e2c6 4435 8eed 4635
000003a0: 3903 4635 a325 4735 81bf 2a35 f596 2935
000003b0: 56d2 2a35 ca73 2b35 71b9 2c35 9c87 2a35
000003c0: 1413 2c35 93c5 3135 711b 2b35 afac 3c35
000003d0: a3a9 3c35 7fed 3b35 822e 3d35 7047 3c35
000003e0: aafa 3b35 3397 3c35 6ee8 3b35 4feb 3b35
000003f0: 554c 3336 2b7c 3336 2efe 3236 2fef 3336

exp_avg f4 [16]
-4.7261477e-05 -0.0007050439 0.00027908152 -3.7264232e-13 -0.0008662721 0.0006295035 0.00045754903 -0.00069388264
0.00048010855 0.00016097317 0.00051764597 0.0006233999 0.00041339846 2.5547049e-11 -0.00038428727 0.00012518812
00000000: a03a 46b8 b2d2 38ba b051 9239 6bc7 d1aa
00000010: 8916 63ba 4405 253a 31e3 ef39 ade5 35ba
00000020: 14b7 fb39 e8ca 2839 a2b2 073a a96b 233a
00000030: 67bd d839 d7b6 e02d 2a7a c9b9 ee44 0339

exp_avg_sq f4 [16]
6.369826e-06 2.0729834e-05 8.242761e-06 2.3737825e-18 1.0346768e-05 2.5308778e-05 6.4790797e-06 8.676641e-06
2.7139365e-06 2.926212e-06 3.7606007e-06 3.556461e-06 1.2197488e-05 1.3214419e-08 8.575216e-06 7.665058e-06
00000000: 64bc d536 fbe4 ad37 644a 0a37 7c27 2f22
00000010: 0897 2d37 304e d437 df66 d936 e491 1137
00000020: 1321 3636 f05f 4436 a15e 7c36 89ab 6e36
00000030: d0a3 4c37 a105 6332 46de 0f37 2c99 0037
