Models/quality_espcn_x2_fp16.onnx (onnx, 98505 bytes, 6 tensors)

conv1.weight f2 [64, 3, 5, 5]
0	0x2db0	0.08887
1	0x2e42	0.0978
2	0xa638	-0.02429
3	0x2eca	0.1061
4	0xa723	-0.02788
5	0x25a7	0.02208
6	0xac39	-0.066
7	0x2c71	0.0694
8	0x2ed9	0.107
9	0xad76	-0.0853
10	0x2e91	0.1026
11	0x24f3	0.01933
12	0x2e31	0.09674
13	0x2686	0.02548
14	0x2c57	0.0678
15	0xa3c8	-0.0152
16	0x2d9c	0.08765
17	0x24c1	0.01857
18	0xaa10	-0.04736
19	0x2860	0.03418
20	0xab20	-0.05566
21	0xa586	-0.02158
22	0xa971	-0.0425
23	0x2cc8	0.0747
24	0xadc5	-0.09015
25	0xaa91	-0.0513
26	0xa630	-0.02417
27	0xab0e	-0.0551
28	0x2574	0.0213
29	0xaec5	-0.1058
30	0x2e96	0.1029
31	0xae7c	-0.1013
32	0x2e7c	0.1013
33	0x2716	0.02768
34	0xa895	-0.0358
35	0x2d0f	0.07904
36	0x2715	0.02766
37	0x2f1a	0.11096
38	0x2480	0.01758
39	0xa73e	-0.02829
40	0x28fd	0.03897
41	0xa57f	-0.02147
42	0x2acd	0.05313
43	0x2ef4	0.10864
44	0x2c6d	0.06915
45	0xaa78	-0.05054
46	0x2c37	0.06586
47	0x281b	0.03207
48	0x2b7f	0.05856
49	0xac92	-0.0714
50	0xaeca	-0.1061
51	0xa825	-0.03238
52	0xad2a	-0.0807
53	0x2e50	0.09863
54	0x2974	0.0426
55	0x2a35	0.0485
56	0x2831	0.03275
57	0x1f90	0.007385
58	0x2e41	0.0977
59	0xaca1	-0.0723
60	0x20e3	0.009544
61	0xacae	-0.0731
62	0x2a31	0.04837
63	0xa941	-0.04105
64	0x29f1	0.04642
65	0xa6c8	-0.02649
66	0x2e57	0.09906
67	0xac5d	-0.0682
68	0xac12	-0.0636
69	0xabb2	-0.06012
70	0x2e80	0.10156
71	0x2951	0.04153
72	0x3020	0.1289
73	0xada9	-0.08844
74	0xaed4	-0.1067
75	0xaa5f	-0.04977
76	0xaade	-0.05365
77	0x2b88	0.05884
78	0x2a38	0.04858
79	0x2e1b	0.0954
80	0xa8a1	-0.03616
81	0xac05	-0.0628
82	0x2bc8	0.0608
83	0xa9c2	-0.04498
84	0x2c57	0.0678
85	0xa3f3	-0.015526
86	0x2bb8	0.0603
87	0xaebe	-0.10535
88	0xad19	-0.07965
89	0x240c	0.01581
90	0x2713	0.02763
91	0xa940	-0.04102
92	0x2997	0.04367
93	0x29e9	0.04617
94	0xaf43	-0.11346
95	0xac03	-0.0627
96	0x2e08	0.09424
97	0xab81	-0.05862
98	0xac62	-0.0685
99	0xb054	-0.1353
100	0x1ff0	0.00775
101	0x2c96	0.07166
102	0x1eb5	0.00655
103	0xac31	-0.0655
104	0x2496	0.01791
105	0xa7db	-0.03069
106	0xac3a	-0.06604
107	0xac3a	-0.06604
108	0xae5b	-0.0993
109	0xabee	-0.06195
110	0x3040	0.1328
111	0x2404	0.01569
112	0x209b	0.008995
113	0xafd9	-0.1226
114	0xacd6	-0.07556
115	0xa7ae	-0.03
116	0x1b5a	0.00359
117	0xaf16	-0.1107
118	0xaa59	-0.0496
119	0xac42	-0.0665
120	0x20bf	0.00927
121	0xa861	-0.0342
122	0x1968	0.00264
123	0xabdb	-0.06137
124	0xab4c	-0.057
125	0xa60a	-0.02359
126	0x99a0	-0.002747
127	0xab9a	-0.0594
128	0x2ff7	0.12445
129	0x1a83	0.00318
130	0x3030	0.1309
131	0x2c08	0.063
132	0xad3c	-0.0818
133	0x2e22	0.0958
134	0xa1b2	-0.01112
135	0xa6ed	-0.02705
136	0xadbe	-0.0897
137	0xaf3f	-0.1132
138	0x28b8	0.03687
139	0xa28d	-0.012794
140	0x2a84	0.0509
141	0xae2b	-0.0964
142	0x2d7c	0.0857
143	0xaceb	-0.07684
144	0xa179	-0.01069
145	0x2709	0.02748
146	0x2bea	0.06183
147	0x2e5d	0.0994
148	0x2f3b	0.113
149	0xacee	-0.077
150	0x2830	0.0327
151	0xab2a	-0.05597
152	0x21fa	0.01167
153	0xac6b	-0.06903
154	0x2e80	0.10156
155	0xae26	-0.09607
156	0x2d55	0.0833
157	0x2ca8	0.07275
158	0x2baa	0.05988
159	0xa9f9	-0.04666
160	0x3030	0.1309
161	0x2ae0	0.0537
162	0x28a0	0.03613
163	0xac4e	-0.06726
164	0x2c0d	0.0633
165	0x9f09	-0.00687
166	0xab33	-0.05624
167	0x307a	0.1399
168	0x2a82	0.05084
169	0xac70	-0.06934
170	0xaa7c	-0.05066
171	0x2405	0.0157
172	0x2cda	0.0758
173	0xa8b2	-0.03668
174	0xaa75	-0.05045
175	0xa698	-0.02576
176	0xad28	-0.08057
177	0x2c76	0.0697
178	0x2f2d	0.1121
179	0xae98	-0.103
180	0x261d	0.02388
181	0x2d35	0.08136
182	0x2a0f	0.04733
183	0xa64f	-0.02464
184	0x2ca8	0.07275
185	0x2da3	0.0881
186	0x2c56	0.06775
187	0x9d7c	-0.005356
188	0xa031	-0.00819
189	0x2527	0.02013
190	0x9d52	-0.005196
191	0xa84d	-0.0336
192	0x2f0b	0.11005
193	0x2fba	0.1207
194	0xa536	-0.02036
195	0xa3af	-0.01501
196	0x252c	0.0202
197	0x1cc4	0.004654
198	0x2512	0.0198
199	0x28b4	0.03674
200	0xacc1	-0.0743
201	0xa830	-0.0327
202	0x2f7b	0.1169
203	0x2b59	0.0574
204	0x8a26	-0.0001876
205	0xac29	-0.065
206	0xab40	-0.05664
207	0xae15	-0.09503
208	0xa8c3	-0.0372
209	0x2a56	0.0495
210	0x2e3d	0.0975
211	0x2c59	0.06793
212	0xae6a	-0.1002
213	0xab43	-0.05673
214	0x989b	-0.002249
215	0x301b	0.1283
216	0x245a	0.017
217	0x1c5e	0.004265
218	0x2cd4	0.07544
219	0xa803	-0.03134
220	0xaab1	-0.05228
221	0x2f31	0.11237
222	0xa6f9	-0.02724
223	0xa33e	-0.014145
224	0xadab	-0.08856
225	0x2e71	0.10065
226	0x2ee8	0.1079
227	0x2bbd	0.06046
228	0xab7b	-0.05844
229	0xadc2	-0.08997
230	0xac32	-0.06555
231	0x2efc	0.10913
232	0x2d05	0.0784
233	0x2fec	0.1238
234	0x2d9c	0.08765
235	0x2c38	0.0659
236	0x2147	0.01031
237	0xabbf	-0.06052
238	0xadcf	-0.09076
239	0xadf6	-0.09314
240	0x2dd8	0.0913
241	0xa87f	-0.03513
242	0xa5da	-0.02286
243	0xac2d	-0.06525
244	0x9f2c	-0.007004
245	0xaa4c	-0.0492
246	0xab79	-0.05838
247	0x2ba9	0.05984
248	0xa20f	-0.01183
249	0x2dd7	0.09125
250	0xa50b	-0.0197
251	0xac81	-0.0704
252	0x9ca5	-0.004536
253	0xa8e3	-0.03818
254	0xa52b	-0.02019
255	0xadd8	-0.0913

conv1.bias f2 [64]
0	0xac29	-0.065
1	0x2c96	0.07166
2	0x2088	0.00885
3	0x2b6a	0.05792
4	0x2ef5	0.1087
5	0x280c	0.03162
6	0x293d	0.04092
7	0x2ea7	0.10394
8	0x2163	0.01052
9	0x2dbf	0.0898
10	0xa8cf	-0.03757
11	0x2e66	0.1
12	0x97c4	-0.001896
13	0x1eee	0.006767
14	0x2c63	0.06854
15	0x2572	0.02127
16	0x2e69	0.10016
17	0xa89b	-0.03598
18	0xa53e	-0.02048
19	0x2f13	0.11053
20	0xab66	-0.0578
21	0x2c20	0.06445
22	0x2ee3	0.1076
23	0x2d4b	0.0827
24	0xa609	-0.02357
25	0x2640	0.02441
26	0xa889	-0.03543
27	0xa45f	-0.01707
28	0xa0a7	-0.00909
29	0xa24a	-0.01228
30	0x2e4d	0.09845
31	0x2ca6	0.07263
32	0x21a6	0.01103
33	0x1e47	0.00613
34	0x2eec	0.10815
35	0x2719	0.02773
36	0x2e25	0.096
37	0x2f54	0.1145
38	0xa492	-0.01785
39	0xab47	-0.05685
40	0x2eb6	0.10486
41	0xa80c	-0.03162
42	0x2f1b	0.111
43	0xa8fa	-0.03888
44	0x29ff	0.04684
45	0x2a07	0.0471
46	0x24d5	0.01888
47	0x2e71	0.10065
48	0xabc3	-0.06064
49	0x1ac7	0.00331
50	0x9bf0	-0.003876
51	0x2dba	0.0895
52	0x2bcf	0.061
53	0x2cbf	0.07416
54	0x2a58	0.04956
55	0x2f13	0.11053
56	0x1ac4	0.003304
57	0xa58a	-0.02164
58	0x263c	0.02435
59	0x2b3d	0.05655
60	0x9f60	-0.007202
61	0x2a69	0.05008
62	0x2719	0.02773
63	0x2afa	0.0545

conv2.weight f2 [64, 64, 3, 3]
0	0x2854	0.0338
1	0x9b37	-0.003523
2	0x267b	0.02531
3	0xa364	-0.014435
4	0xa9ae	-0.04437
5	0x23d4	0.01529
6	0x2081	0.0088
7	0x285f	0.03415
8	0x191d	0.002497
9	0x95fa	-0.001459
10	0xa5a2	-0.022
11	0xa487	-0.01768
12	0xa043	-0.00832
13	0x266e	0.02512
14	0x1d54	0.005203
15	0xa702	-0.02737
16	0x2117	0.00994
17	0xa4db	-0.01897
18	0x25ca	0.02261
19	0xa9e3	-0.046
20	0xa8fe	-0.039
21	0xa777	-0.02916
22	0xa066	-0.00859
23	0x1a17	0.002974
24	0x21c4	0.01126
25	0xa97e	-0.0429
26	0xa473	-0.01738
27	0x1933	0.002539
28	0xa521	-0.02003
29	0x2263	0.012474
30	0x2926	0.04022
31	0x9715	-0.001729
32	0xa13d	-0.01023
33	0x1b34	0.003517
34	0x21a0	0.01099
35	0xa107	-0.00982
36	0xa8b1	-0.03665
37	0xa812	-0.0318
38	0xa1d5	-0.01139
39	0x25e9	0.02309
40	0x19c6	0.00282
41	0xa2e9	-0.0135
42	0x25d2	0.02274
43	0xa1a7	-0.01104
44	0x12c7	0.0008273
45	0xa594	-0.02179
46	0x20ef	0.009636
47	0x28de	0.03802
48	0x1a5e	0.003109
49	0x9c83	-0.004406
50	0xa4f6	-0.01938
51	0xa9f1	-0.04642
52	0xa387	-0.0147
53	0xa9d9	-0.0457
54	0x286f	0.03464
55	0xa5b3	-0.02226
56	0x989e	-0.002254
57	0xa94d	-0.0414
58	0xa0e4	-0.00955
59	0x29ac	0.0443
60	0x051a	7.784e-05
61	0xa425	-0.01619
62	0x25c4	0.02252
63	0x2772	0.02908
64	0x2226	0.01201
65	0xa597	-0.02184
66	0x92f3	-0.0008483
67	0xa7fe	-0.03122
68	0xa6ec	-0.02704
69	0x27c9	0.03041
70	0xa6a0	-0.02588
71	0xa5ac	-0.02216
72	0x28e7	0.0383
73	0x2c46	0.0668
74	0xa9ec	-0.04626
75	0x20fd	0.00974
76	0x24c9	0.01869
77	0x2a52	0.04938
78	0x2884	0.03528
79	0x1c95	0.004475
80	0x2a65	0.04996
81	0x9c2c	-0.004074
82	0x2493	0.01787
83	0x1914	0.00248
84	0x1654	0.001545
85	0xa0bf	-0.00927
86	0x2385	0.01469
87	0x250f	0.01976
88	0x90bd	-0.0005784
89	0x28aa	0.03644
90	0xa1a3	-0.01101
91	0xa6c5	-0.02644
92	0x195a	0.002613
93	0x253f	0.0205
94	0xa63f	-0.0244
95	0xa152	-0.01039
96	0x24e3	0.01909
97	0x1197	0.0006824
98	0xa2eb	-0.01351
99	0x26e1	0.02687
100	0x21ed	0.01157
101	0xa5a9	-0.02211
102	0xa810	-0.03174
103	0x2983	0.04306
104	0xa24b	-0.01229
105	0xa653	-0.0247
106	0xa70b	-0.02751
107	0x284e	0.03363
108	0x2a78	0.05054
109	0x1c60	0.004272
110	0x215d	0.010475
111	0x1a65	0.003122
112	0x2462	0.01712
113	0x239d	0.01487
114	0xa38b	-0.01473
115	0xa21e	-0.01195
116	0x20c9	0.009346
117	0xa422	-0.01614
118	0xa247	-0.01226
119	0xa665	-0.02498
120	0xad18	-0.0796
121	0x8dc4	-0.000352
122	0x29b8	0.04468
123	0xa788	-0.02942
124	0x2d7b	0.08563
125	0xa87d	-0.03506
126	0xaa0a	-0.04718
127	0x2680	0.02539
128	0x25ee	0.02316
129	0x2542	0.02054
130	0x1c4f	0.004208
131	0x29cd	0.04532
132	0xa976	-0.04266
133	0x2495	0.0179
134	0xa192	-0.01088
135	0xa0ad	-0.00913
136	0x2753	0.02861
137	0xa57e	-0.02145
138	0x25a7	0.02208
139	0xa34f	-0.014275
140	0x2447	0.01671
141	0xa4c8	-0.01868
142	0x26eb	0.02702
143	0x28a1	0.03616
144	0xa4f6	-0.01938
145	0xaa6f	-0.05026
146	0x2834	0.03284
147	0xa70b	-0.02751
148	0x1d81	0.005375
149	0x2499	0.01796
150	0xa1dd	-0.01145
151	0x2821	0.03226
152	0x25c8	0.02258
153	0x9fb8	-0.007538
154	0x243d	0.01656
155	0xa413	-0.01591
156	0x271b	0.02776
157	0x25b8	0.02234
158	0xa85a	-0.034
159	0x2422	0.01614
160	0x2498	0.01794
161	0x2775	0.02913
162	0x8fff	-0.000488
163	0x1456	0.001059
164	0xa4e2	-0.01907
165	0x2467	0.0172
166	0xa987	-0.04318
167	0x2db8	0.08936
168	0x2854	0.0338
169	0x1ed3	0.006664
170	0xa6d5	-0.02669
171	0x2933	0.04062
172	0xaaf0	-0.0542
173	0x2698	0.02576
174	0xaa7d	-0.0507
175	0xa0c8	-0.00934
176	0xa887	-0.03537
177	0x2939	0.0408
178	0xa674	-0.0252
179	0x28a2	0.0362
180	0x1fe6	0.007713
181	0x2864	0.0343
182	0x260e	0.02365
183	0x26d6	0.0267
184	0x28bb	0.03696
185	0xa3c6	-0.01518
186	0xa2d0	-0.013306
187	0x1e8a	0.006386
188	0x28df	0.03806
189	0xa1b0	-0.01111
190	0xa8e9	-0.03836
191	0xa78d	-0.0295
192	0xa610	-0.02368
193	0x9d90	-0.005432
194	0xa247	-0.01226
195	0xa3df	-0.01537
196	0xa6bf	-0.02635
197	0x9b2b	-0.0035
198	0xa888	-0.0354
199	0x2851	0.03372
200	0x9d68	-0.00528
201	0x9797	-0.001853
202	0x24d5	0.01888
203	0xa630	-0.02417
204	0x284f	0.03366
205	0x9dfa	-0.005836
206	0x199f	0.002745
207	0xa9bb	-0.04477
208	0x9c07	-0.003933
209	0x1e68	0.006256
210	0x175f	0.0018
211	0xa0b0	-0.009155
212	0x26d6	0.0267
213	0x26d2	0.02664
214	0x27a4	0.02985
215	0xa0db	-0.00948
216	0x0f0e	0.0004306
217	0xa790	-0.02954
218	0xa7ac	-0.02997
219	0x1527	0.001258
220	0x1c26	0.00405
221	0xa669	-0.02504
222	0xa9cf	-0.04538
223	0x2436	0.01645
224	0x24e3	0.01909
225	0xa9f3	-0.04648
226	0x275f	0.0288
227	0xa87f	-0.03513
228	0x2628	0.02405
229	0x1c13	0.00398
230	0xa3d4	-0.01529
231	0x2a5f	0.04977
232	0x97b1	-0.001878
233	0x203a	0.008255
234	0x954b	-0.001292
235	0x9481	-0.0011
236	0x9f01	-0.00684
237	0xa51d	-0.01997
238	0x9f11	-0.0069
239	0x250e	0.01974
240	0x2083	0.00881
241	0xa5aa	-0.02213
242	0xa73f	-0.0283
243	0x2034	0.00821
244	0xa23c	-0.01218
245	0x19cf	0.002836
246	0x2006	0.00786
247	0x2561	0.02101
248	0x2413	0.01591
249	0x85a2	-8.595e-05
250	0x26e4	0.02692
251	0x202a	0.00813
252	0x21b6	0.011154
253	0x278a	0.02945
254	0xa85e	-0.03412
255	0x15a5	0.001378

conv2.bias f2 [64]
0	0x27b8	0.03015
1	0xa15b	-0.01046
2	0x291a	0.03986
3	0x9bee	-0.003872
4	0x9884	-0.002205
5	0xa64b	-0.02458
6	0x23b3	0.01504
7	0x241c	0.01605
8	0xa5c8	-0.02258
9	0x28ca	0.0374
10	0x26eb	0.02702
11	0x28fa	0.03888
12	0x288b	0.0355
13	0xa84d	-0.0336
14	0xa2e6	-0.01347
15	0xa0f0	-0.00964
16	0x2651	0.02467
17	0x96c4	-0.001652
18	0x1f95	0.007404
19	0xa89d	-0.03604
20	0x1e20	0.00598
21	0x269c	0.02582
22	0xa6cc	-0.02655
23	0xa28c	-0.01279
24	0x26eb	0.02702
25	0x96e5	-0.001683
26	0x2692	0.02567
27	0x248d	0.01778
28	0x215c	0.01047
29	0x2001	0.00782
30	0xa8d9	-0.03787
31	0x2356	0.01433
32	0x1c18	0.003998
33	0x2437	0.01646
34	0x2791	0.02956
35	0xa789	-0.02943
36	0x28d6	0.03778
37	0xa846	-0.0334
38	0x9f46	-0.007103
39	0x2039	0.00825
40	0x268b	0.02556
41	0xa145	-0.01029
42	0xa024	-0.00809
43	0x928f	-0.0008006
44	0xa630	-0.02417
45	0x27be	0.03024
46	0xa443	-0.01665
47	0xa86b	-0.03452
48	0xa25b	-0.01241
49	0x28ac	0.0365
50	0x20ff	0.00976
51	0x1763	0.001803
52	0xa525	-0.0201
53	0x2750	0.02856
54	0x2984	0.0431
55	0xa82b	-0.03256
56	0xa8d3	-0.0377
57	0x28a2	0.0362
58	0x9fcf	-0.007626
59	0x1826	0.002026
60	0x26af	0.02611
61	0x2929	0.0403
62	0x0dbf	0.0003507
63	0x191d	0.002497

conv3.weight f2 [12, 64, 3, 3]
0	0x9c81	-0.0044
1	0xa87e	-0.0351
2	0xa9c6	-0.0451
3	0x21e2	0.01149
4	0x266b	0.02507
5	0xa742	-0.02835
6	0x2a28	0.0481
7	0xa02f	-0.00817
8	0x2350	0.01428
9	0xa8f1	-0.0386
10	0x1fd9	0.007664
11	0x2293	0.01284
12	0xa67e	-0.02536
13	0xa143	-0.01028
14	0xa7b0	-0.03003
15	0xa8ab	-0.03647
16	0x2383	0.01467
17	0x2a64	0.04993
18	0x219c	0.010956
19	0x2461	0.0171
20	0x27fe	0.03122
21	0xa690	-0.02563
22	0xa70f	-0.02757
23	0xa44e	-0.01682
24	0xa9b2	-0.0445
25	0x1979	0.002672
26	0x24bb	0.01848
27	0xa2f0	-0.01355
28	0x25da	0.02286
29	0xa4c7	-0.01866
30	0xa730	-0.02808
31	0x29b6	0.04462
32	0x2007	0.007866
33	0x2852	0.03375
34	0xa46e	-0.0173
35	0x24ed	0.01924
36	0xa7aa	-0.02994
37	0x98f5	-0.00242
38	0x229f	0.01293
39	0x26ca	0.02652
40	0x2451	0.01686
41	0xa961	-0.04202
42	0xa60e	-0.02365
43	0x296a	0.0423
44	0x282f	0.03268
45	0x0fe7	0.0004823
46	0x9954	-0.002602
47	0x16ea	0.001688
48	0x12b5	0.0008187
49	0x15e1	0.001435
50	0x8728	-0.0001092
51	0x1668	0.001564
52	0x19cc	0.00283
53	0x1e4d	0.006153
54	0x27c9	0.03041
55	0xa0fa	-0.00972
56	0xa8c1	-0.03714
57	0xa4f9	-0.01942
58	0xa600	-0.02344
59	0x245c	0.01703
60	0x2101	0.00977
61	0x1d20	0.005005
62	0x24b6	0.0184
63	0xa4b1	-0.01833
64	0xa1fb	-0.01168
65	0x23be	0.01512
66	0x290b	0.0394
67	0x292b	0.04037
68	0xa888	-0.0354
69	0x2b92	0.05914
70	0x90d4	-0.0005894
71	0xa8da	-0.0379
72	0xa0fa	-0.00972
73	0x283b	0.03305
74	0x2459	0.01698
75	0x9afd	-0.003412
76	0x27ac	0.02997
77	0x29b0	0.04443
78	0x28ac	0.0365
79	0xa06f	-0.00866
80	0xa8f9	-0.03885
81	0xa22d	-0.01206
82	0x9fda	-0.007668
83	0xa10f	-0.00988
84	0xa433	-0.0164
85	0x2416	0.01596
86	0xa865	-0.03433
87	0x9499	-0.001122
88	0x2175	0.01066
89	0xa2f9	-0.01362
90	0x26ab	0.02605
91	0xa4ae	-0.01828
92	0xa59d	-0.02193
93	0xa4d2	-0.01883
94	0x999c	-0.002739
95	0x9d87	-0.005398
96	0xa573	-0.02129
97	0x21d7	0.011406
98	0x1f11	0.0069
99	0x2644	0.02448
100	0xa52c	-0.0202
101	0xa85d	-0.0341
102	0x27de	0.03073
103	0x9b74	-0.00364
104	0x294a	0.04132
105	0x2120	0.01001
106	0x293a	0.04083
107	0x2991	0.0435
108	0x20f7	0.0097
109	0xa5cd	-0.02266
110	0xa900	-0.03906
111	0x2242	0.01222
112	0x243d	0.01656
113	0x0c0a	0.0002465
114	0xa9d8	-0.04565
115	0x21f6	0.01164
116	0xa67d	-0.02534
117	0x9778	-0.001823
118	0x888b	-0.0001386
119	0x9861	-0.002138
120	0x9c75	-0.004353
121	0x9ef4	-0.00679
122	0x1e4d	0.006153
123	0x1a4c	0.003075
124	0x9e50	-0.006165
125	0x9a00	-0.00293
126	0x8296	-3.946e-05
127	0xa504	-0.01959
128	0x27cb	0.03044
129	0x2592	0.02176
130	0xa1c1	-0.01124
131	0x17bd	0.001889
132	0xa508	-0.01965
133	0xa7c2	-0.0303
134	0x282f	0.03268
135	0x2464	0.01715
136	0x1564	0.001316
137	0x27ec	0.03094
138	0xa18c	-0.01083
139	0x2b21	0.0557
140	0xa22c	-0.012054
141	0x1cab	0.00456
142	0x29bc	0.0448
143	0x20a8	0.009094
144	0x1d4b	0.00517
145	0x9b0b	-0.003439
146	0xa704	-0.0274
147	0xa14a	-0.01033
148	0x21d9	0.01142
149	0x1533	0.001269
150	0xa4e6	-0.01913
151	0x294c	0.04138
152	0xa2ab	-0.01302
153	0x2a63	0.0499
154	0x29c4	0.04504
155	0xa848	-0.03345
156	0x1381	0.000916
157	0x1e0e	0.005913
158	0xa50f	-0.01976
159	0xa4f9	-0.01942
160	0xa66b	-0.02507
161	0xa886	-0.03534
162	0x9c1a	-0.004005
163	0xa740	-0.02832
164	0xa2a3	-0.01296
165	0xa812	-0.0318
166	0x1d28	0.005035
167	0x2b2a	0.05597
168	0x21e8	0.011536
169	0x2915	0.0397
170	0xa860	-0.03418
171	0x2336	0.014084
172	0xa6d8	-0.02673
173	0x23e6	0.01543
174	0x297f	0.04294
175	0xa4ba	-0.01846
176	0x2651	0.02467
177	0x91de	-0.000716
178	0xa828	-0.03247
179	0x2483	0.01762
180	0xa888	-0.0354
181	0xa87c	-0.03503
182	0xa9b8	-0.04468
183	0x2414	0.01593
184	0xa443	-0.01665
185	0xa837	-0.03293
186	0xa196	-0.01091
187	0x11f6	0.0007277
188	0x2181	0.01075
189	0x263d	0.02437
190	0x258a	0.02164
191	0x26d7	0.02672
192	0x9e89	-0.006382
193	0x19fe	0.002926
194	0x1aeb	0.003378
195	0x252e	0.02023
196	0x1f85	0.007343
197	0x1e14	0.005936
198	0x1f6d	0.00725
199	0x20dd	0.0095
200	0x2467	0.0172
201	0x9b82	-0.003666
202	0xa09d	-0.00901
203	0x1a6d	0.003138
204	0xa1b4	-0.01114
205	0xa309	-0.01374
206	0x233a	0.014114
207	0xa840	-0.0332
208	0x9fe5	-0.00771
209	0x2d01	0.0782
210	0x285f	0.03415
211	0x2df5	0.0931
212	0x3105	0.1569
213	0x02d3	4.31e-05
214	0x23bd	0.015114
215	0x2fd5	0.1224
216	0xaa2d	-0.04825
217	0xaba7	-0.05978
218	0x26c9	0.0265
219	0x2de4	0.09204
220	0x298a	0.04327
221	0x2d3d	0.08185
222	0x9e2d	-0.00603
223	0x28f8	0.03882
224	0x0c2d	0.0002549
225	0x2983	0.04306
226	0xa811	-0.03177
227	0x27b0	0.03003
228	0xa75e	-0.02878
229	0x1e4b	0.006145
230	0xa669	-0.02504
231	0x1c0c	0.003952
232	0x9da6	-0.005516
233	0x28cb	0.03745
234	0x284a	0.0335
235	0x2adf	0.05368
236	0x2494	0.01788
237	0x299d	0.04385
238	0x2970	0.04248
239	0x1f47	0.007107
240	0xa082	-0.008804
241	0x24c4	0.01862
242	0xa192	-0.01088
243	0x2669	0.02504
244	0x268d	0.02559
245	0xa6df	-0.02684
246	0x252d	0.02022
247	0x2217	0.011894
248	0xa3b2	-0.01503
249	0xa982	-0.04303
250	0x2134	0.01016
251	0x287d	0.03506
252	0xa51d	-0.01997
253	0x1e7e	0.00634
254	0xa858	-0.03394
255	0x280a	0.03156

conv3.bias f2 [12]
0	0x2003	0.007835
1	0xa23e	-0.01219
2	0xa2c7	-0.01324
3	0x261b	0.02385
4	0x245c	0.01703
5	0xa0bd	-0.009254
6	0x129e	0.000808
7	0x1f73	0.007275
8	0x1d7b	0.005352
9	0xa07b	-0.00875
10	0xa6cd	-0.02657
11	0xa7f7	-0.03111
