Models/quality_espcn_x2.onnx (onnx, 195941 bytes, 6 tensors)

conv1.weight f4 [64, 3, 5, 5]
00000000: 86fa b53d 8f45 c83d a50b c7bc a244 d93d
00000010: 8c55 e4bc 9ad5 b43c 6529 87bd 932b 8e3d
00000020: b428 db3d 9bca aebd b721 d23d 9c5f 9e3c
00000030: 3d2c c63d a7b4 d03c ebec 8a3d 1af7 78bc
00000040: 4078 b33d c41e 983c 52f6 41bd a0fc 0b3d
00000050: 7a0c 64bd 43bf b0bc e31d 2ebd 22f5 983d
00000060: ef97 b8bd 7828 52bd 7104 c6bc eac9 61bd
00000070: 407e ae3c 15a7 d8bd d3c0 d23d fd87 cfbd
00000080: ac88 cf3d 2bbf e23c 9896 12bd 34ee a13d
00000090: c1ae e23c 9a31 e33d caf1 8f3c 9db1 e7bc
000000a0: 86a1 1f3d 8fea afbc a2a0 593d e872 de3d
000000b0: 729d 8d3d 7bf8 4ebd e0ea 863d a558 033d
000000c0: 85ea 6f3d e337 92bd a349 d9bd db9f 04bd
000000d0: 9631 a5bd 3808 ca3d 4c8f 2e3d 8999 463d
000000e0: f010 063d 3006 f23b 6f12 c83d 0710 94bd
000000f0: 335e 1c3c 42b6 95bd 7515 463d 3c26 28bd
00000100: 312a 3e3d 3c06 d9bc 19db ca3d 499a 8bbd
00000110: bd4a 82bd dc4f 76bd 4d0b d03d 802a 2a3d
00000120: 9509 043e db12 b5bd cf82 dabd d8d1 4bbd
00000130: 26ca 5bbd 0b02 713d 4c03 473d dd66 c33d
00000140: 0621 14bd e2a9 80bd 3708 793d ae3f 38bd
00000150: 63de 8a3d d66d 7ebc 53fe 763d c8c1 d7bd
00000160: 701e a3bd 4c8f 813c 5350 e23c a301 28bd
00000170: c2e6 323d 9b12 3d3d ac5d e8bd b060 80bd
00000180: 5cff c03d 582c 70bd a53f 8cbd 228c 0abe
00000190: a1f9 fd3b a6ca 923d bbab d63b 0728 86bd
000001a0: d6b4 923c d65c fbbc 1632 87bd 9347 87bd
000001b0: 5d55 cbbd ffcc 7dbd 42fe 073e b488 803c
000001c0: 2e54 133c 9d16 fbbd 5ac5 9abd deba f5bc
000001d0: 2b35 6b3b 20b8 e2bd 9e1c 4bbd f344 88bd
000001e0: dae7 173c 4b2c 0cbd e5f5 2c3b eb58 7bbd
000001f0: 2170 69bd b948 c1bc 610a 34bb 4239 73bd
00000200: 64e7 fe3d bc55 503b 270f 063e 1af6 803d
00000210: 5f71 a7bd 833e c43d fb3c 36bc 5aa1 ddbc
00000220: 9bba b7bd fdea e7bd 9dfb 163d f593 51bc
00000230: 2283 503d f55b c5bd 7d79 af3d 8f69 9dbd
00000240: ec13 2fbc 2e25 e13c 4c46 7d3d 1c9d cb3d
00000250: fd54 e73d b4b4 9dbd c5f4 053d be4e 65bd
00000260: 6339 3f3c a553 8dbd 76fa cf3d 60b3 c4bd
00000270: 7caf aa3d 1ff7 943d 5337 753d 0019 3fbd
00000280: 4007 063e 3a08 5c3d d70c 143d 49c1 89bd
00000290: b39c 813d 2f14 e1bb 1461 66bd 6b4e 0f3e
000002a0: 9334 503d 77f1 8dbd 987a 4fbd a3a8 803c
000002b0: 0e4d 9b3d e640 16bd b49b 4ebd 86f8 d2bc
000002c0: 7af3 a4bd a9cb 8e3d 8698 e53d 4cf0 d2bd
000002d0: a990 c33c 2193 a63d 23dc 413d 01e8 c9bc
000002e0: 91f0 943d 0157 b43d a5c0 8a3d 0285 afbb
000002f0: e416 06bc 42e2 a43c f04f aabb 9faf 09bd
00000300: e258 e13d 273a f73d 4bc9 a6bc 2edb 75bc
00000310: 5b8b a53c a074 983b 483c a23c 6774 163d
00000320: 941a 98bd f9fb 05bd f551 ef3d 5322 6b3d
00000330: e5cb 44b9 8f16 85bd 1d0f 68bd 5d90 c2bd
00000340: 3d63 18bd 03ba 4a3d e891 c73d 6226 8b3d
00000350: eb48 cdbd 066f 68bd 5c51 13bb 3d5d 033e
00000360: 9a3f 8b3c 0ac8 8b3b 2c81 9a3d 256a 00bd
00000370: 012f 56bd df1b e63d 4c27 dfbc 64ca 67bc
00000380: a75d b5bd 3120 ce3d 2dfb dc3d e2a2 773d
00000390: b663 6fbd 2747 b8bd f032 86bd 278d df3d
000003a0: 219e a03d 8372 fd3d 078a b33d 5607 873d
000003b0: 49ea 283c e2e1 77bd 37da b9bd 74c7 bebd
000003c0: ac00 bb3d 42d1 0fbd 9f4f bbbc 7cab 85bd
000003d0: 8a7f e5bb 9571 49bd 0111 6fbd 5220 753d
000003e0: e5e4 41bc bce3 ba3d 2854 a1bc ec26 90bd
000003f0: c497 94bb 5266 1cbd 6166 a5bc c709 bbbd
0.08885674 0.09778892 -0.024297545 0.10608794 -0.027872823 0.02207451 -0.06599692 0.06941905
0.10701123 -0.08534738 0.10260337 0.0193327 0.096764065 0.025476767 0.0678347 -0.015195632
0.0876317 0.018569358 -0.04735405 0.03417647 -0.05567596 -0.021575576 -0.04250897 0.074686304
-0.09013354 -0.051308125 -0.02417204 -0.0551242 0.021300435 -0.10578743 0.102906846 -0.101333596
0.1013349 0.027679047 -0.03578815 0.07906762 0.02767122 0.11093445 0.017571349 -0.028282935
0.0389724 -0.021474151 0.053131707 0.108617604 0.06914796 -0.05052994 0.065877676 0.03206696
0.058573265 -0.07139566 -0.10609748 -0.032379013 -0.080660984 0.09864849 0.042617127 0.048486266
0.032730997 0.0073859915 0.09769141 -0.072296195 0.009543943 -0.073101535 0.048360307 -0.04105209
0.046426956 -0.02649223 0.09905071 -0.06816537 -0.063619114 -0.060134754 0.101584055 0.041544437
0.1289428 -0.08841487 -0.10669481 -0.04976067 -0.05365958 0.05883984 0.04858713 0.09541104
-0.036164306 -0.062824026 0.06079885 -0.044982605 0.06780698 -0.015529117 0.060301136 -0.10535008
-0.0796479 0.0158154 0.027626192 -0.041017186 0.0436771 0.04616032 -0.113459915 -0.06268442
0.09423706 -0.05863604 -0.06848077 -0.13530019 0.0077507054 0.07167558 0.0065512336 -0.06550603
0.017908495 -0.030683916 -0.0660135 -0.066054486 -0.09928391 -0.061963078 0.13280585 0.015690185
0.008992238 -0.122601725 -0.07557173 -0.029996332 0.0035889845 -0.11070275 -0.04958784 -0.06653776
0.009271586 -0.03422193 0.0026391682 -0.061364096 -0.0569917 -0.023594247 -0.0027472007 -0.059380777
0.12446478 0.0031789383 0.13091718 0.0629694 -0.08175921 0.09582236 -0.011122937 -0.027054477
-0.08971139 -0.11324117 0.03686105 -0.012791623 0.050906308 -0.0963668 0.08568094 -0.07686149
-0.010685902 0.027483549 0.06183462 0.099420756 0.11295507 -0.07700482 0.032704134 -0.055983298
0.011671397 -0.069007196 0.101551935 -0.096045256 0.08334252 0.07273697 0.059867214 -0.0466547
0.13088703 0.053718783 0.036145058 -0.06726319 0.06328716 -0.006868861 -0.056244925 0.13994758
0.05083139 -0.069308214 -0.050654024 0.015705412 0.075830564 -0.036682986 -0.05044146 -0.02575327
-0.08054252 0.06972439 0.11210732 -0.10299739 0.02387269 0.08133531 0.04732908 -0.02464676
0.07272447 0.08805657 0.06775025 -0.005356432 -0.0081841685 0.02012742 -0.0051975176 -0.03361475
0.11003281 0.120716386 -0.020359656 -0.01500587 0.020208051 0.0046525747 0.019804135 0.036732104
-0.074269444 -0.032711003 0.11685554 0.05740578 -0.00018767973 -0.06498443 -0.05665504 -0.09500191
-0.037204016 0.0494938 0.09744626 0.0679443 -0.100236736 -0.056746505 -0.0022478914 0.12828536
0.016998101 0.00426579 0.07544169 -0.031351227 -0.05229092 0.11235785 -0.027240418 -0.014147375
-0.088557534 0.10064734 0.107900955 0.06045807 -0.0584447 -0.08997946 -0.06552684 0.109155945
0.07842661 0.12375357 0.08766561 0.06593196 0.010309764 -0.060518153 -0.09074824 -0.093153864
0.091309875 -0.035111673 -0.022865115 -0.06526849 -0.007003729 -0.049180586 -0.058365826 0.059845276
-0.011834358 0.09125468 -0.01969345 -0.07038674 -0.0045346934 -0.038183518 -0.02019042 -0.09132724

conv1.bias f4 [64]
00000000: 411d 85bd 82ce 923d a203 113c 2334 6d3d
00000010: e4ad de3d e08f 013d f3a6 273d 65d1 d43d
00000020: 7759 2c3c e1e8 b73d d7db 19bd 51cd cc3d
00000030: 1a75 f8ba c5c7 dd3b 5259 8c3d ba44 ae3c
00000040: 8820 cd3d 1a5c 13bd 4ac6 a7bc 7c5d e23d
00000050: 61be 6cbd dafb 833d 685c dc3d ae6c a93d
00000060: 0613 c1bc af0a c83c bf1a 11bd 9cdc 8bbc
00000070: 04e9 14bc a939 49bc 0b95 c93d efb2 943d
00000080: 9aba 343c c5d1 c83b 9472 dd3d c52b e33c
00000090: 9caa c43d 9185 ea3d 7132 92bc 24e4 68bd
000000a0: 00be d63d 3979 01bd 1f6a e33d 7333 1fbd
000000b0: e3d8 3f3d 11d7 403d fd9f 9a3c a92c ce3d
000000c0: b36f 78bd c8e7 583b c008 7ebb 4139 b73d
000000d0: 99e4 793d f8d0 973d 8a06 4b3d e954 e23d
000000e0: 6875 583b ad4c b1bc 218e c73c a896 673d
000000f0: edf2 ebbb f52a 4d3d f52d e33c b64d 5f3d
-0.0649972 0.071682945 0.008850964 0.05791105 0.10873011 0.03163135 0.0409307 0.10391501
0.010519377 0.08979965 -0.03756317 0.100000985 -0.0018955797 0.006768199 0.06852974 0.021273006
0.100159705 -0.035976507 -0.020480294 0.11052987 -0.057798747 0.06444521 0.107598126 0.08272682
-0.023568641 0.024419157 -0.035425898 -0.017072968 -0.009088758 -0.012281814 0.09842881 0.072606914
0.011030817 0.006128522 0.1081287 0.027730832 0.09602854 0.11451257 -0.017846318 -0.056858197
0.104854584 -0.031609748 0.11104225 -0.038867425 0.0468377 0.047080103 0.018875116 0.10067112
-0.0606534 0.0033097137 -0.003876254 0.08946467 0.061009023 0.074129045 0.049566783 0.110513516
0.0033028964 -0.021643007 0.024359765 0.05654016 -0.00720059 0.050089795 0.027731875 0.05451747

conv2.weight f4 [64, 64, 3, 3]
00000000: 368b 0a3d d1d8 66bb db52 cf3c 387f 6cbc
00000010: 88c5 35bd 4589 7a3c 0919 103c 28d2 0b3d
00000020: d39e 233b 284f bfba 4e3c b4bc 97e7 90bc
00000030: 295d 08bc 28bc cd3c c48c aa3b 5a32 e0bc
00000040: cde8 223c 4e60 9bbc cb4c b93c 5258 3cbd
00000050: 8aca 1fbd 81e2 eebc 58c1 0cbc a6e1 423b
00000060: 1e8b 383c a4bc 2fbd cf6c 8ebc 0360 263b
00000070: 552e a4bc d855 4c3c 80b3 243d 60aa e2ba
00000080: b49a 27bc bc79 663b b308 343c 32e1 20bc
00000090: 3b19 16bd ce47 02bd 86a3 3abc 672f bd3c
000000a0: 30be 383b 5f24 5dbc 0f3e ba3c 2fe2 34bc
000000b0: 94d7 583a 358a b2bc 19d7 1d3c 9ab3 1b3d
000000c0: 03c0 4b3b aa6d 90bb 5db0 9ebc 5c15 3ebd
000000d0: 38ea 70bc 071c 3bbd 48de 0d3d 306d b6bc
000000e0: e1c0 13bb 8aae 29bd a277 1cbc c071 353d
000000f0: 8b4f a338 eaa7 84bc 8676 b83c a648 ee3c
00000100: b2bf 443c 55db b2bc 5654 5eba 56bb ffbc
00000110: e88a ddbc e22b f93c 32f4 d3bc 4a80 b5bc
00000120: abe6 1c3d d1c3 883d de8d 3dbd 26ae 1f3c
00000130: e517 993c 894e 4a3d 8a80 103d ca95 923b
00000140: c2a1 4c3d 268e 85bb db6b 923c 508d 223b
00000150: 8e8b ca3a e8e3 17bc e6a3 703c a6e9 a13c
00000160: e99c 17ba 303a 153d 4b6f 34bc a8ad d8bc
00000170: cc3a 2b3b b2e2 a73c fee0 c7bc 3a3f 2abc
00000180: e95c 9c3c 66d2 323a 1f69 5dbc 0720 dc3c
00000190: 559a 3d3c 2c14 b5bc 8e08 02bd 8a52 303d
000001a0: 9465 49bc 7764 cabc 1361 e1bc a1b3 093d
000001b0: 6ef8 4e3d d508 8c3b 03af 2b3c 68ad 4c3b
000001c0: 2c30 8c3c cfa8 733c 3966 71bc 16c7 43bc
000001d0: 2f19 193c 9b49 84bc d2e2 48bc 43a5 ccbc
000001e0: 48fe a2bd 477f b8b9 2205 373d b8f7 f0bc
000001f0: db51 af3d 2da7 0fbd 5839 41bd 91fd cf3c
00000200: fbcc bd3c 7e3b a83c f7d3 893b c29d 393d
00000210: 00ce 2ebd df9d 923c 724b 32bc f5af 15bc
00000220: cd6b ea3c 69c5 afbc aad4 b43c b3ee 69bc
00000230: c1da 883c 4df9 98bc df56 dd3c bd25 143d
00000240: ecc6 9ebc b6e8 4dbd ec86 063d d552 e1bc
00000250: 0c2d b03b 7027 933c 6f97 3bbc 6d14 043d
00000260: b1f3 b83c 9ff4 f6bb cc98 873c f950 82bc
00000270: 2953 e33c 7df3 b63c 1938 0bbd da4e 843c
00000280: 4505 933c be99 ee3c 7cda ffb9 4fc7 8a3a
00000290: d435 9cbc 30de 8c3c b4d6 30bd c0fb b63d
000002a0: 048a 0a3d 8f69 da3b 9daa dabc f967 263d
000002b0: 2406 5ebd 3f0f d33c c5aa 4fbd 4eff 18bc
000002c0: 28df 10bd ff25 273d fb80 cebc 113c 143d
000002d0: 9eba fc3b a38a 0c3d 27bc c13c 73b1 da3c
000002e0: 8a6a 173d e3cc 78bc 30f0 59bc 7a35 d13b
000002f0: 4eea 1b3d 3d05 36bc a82d 1dbd a3ab f1bc
00000300: 6cff c1bc 5d05 b2bb 6dd2 48bc 7ce6 7bbc
00000310: 94db d7bc 9e53 65bb 490c 11bd 8d2e 0a3d
00000320: 8408 adbb 14d0 f2ba a199 9a3c 34fe c5bc
00000330: 70d4 093d 6e3a bfbb 10e1 333b 9668 37bd
00000340: f3d2 80bb 38f9 cc3b 22dd eb3a 25f7 15bc
00000350: 5bbc da3c 324d da3c ef78 f43c 336f 1bbc
00000360: cfb1 e139 b6fa f1bc 7076 f5bc 3cde a43a
00000370: e7be 843b fa13 cdbc 3fed 39bd 04c9 863c
00000380: 565b 9c3c 316d 3ebd f3e9 eb3c 04ec 0fbd
00000390: 24fd c43c 6d6f 823b ab71 7abc 02d8 4b3d
000003a0: 0421 f6ba 6633 073c b86d a9ba 2a22 90ba
000003b0: 9a19 e0bb f6ad a3bc 942b e2bb f4c5 a13c
000003c0: a86e 103c 4032 b5bc c8e3 e7bc f77b 063c
000003d0: 9a88 47bc 5ee9 393b c9b4 003c f71d ac3c
000003e0: b757 823c e94a b4b8 e288 dc3c 364b 053c
000003f0: 6db3 363c 0d45 f13c 0ab3 0bbd 3e96 b43a
0.03382417 -0.0035224447 0.025308063 -0.014434628 -0.044377834 0.015291517 0.008795031 0.034135967
0.0024966493 -0.0014595734 -0.022001412 -0.017688556 -0.008322992 0.025114134 0.005204769 -0.02736776
0.009943199 -0.01896682 0.022619626 -0.045982666 -0.039011516 -0.02916074 -0.008591019 0.0029736548
0.011263637 -0.04290451 -0.017385868 0.0025386817 -0.020041624 0.012471639 0.040210247 -0.0017293207
-0.010229755 0.0035167774 0.010988402 -0.009819316 -0.036645155 -0.03180676 -0.011391526 0.023093892
0.0028189532 -0.013497441 0.02273467 -0.0110402545 0.000827187 -0.021794418 0.009633803 0.03801308
0.003108979 -0.004407604 -0.019371206 -0.04640709 -0.01470428 -0.045681026 0.034635812 -0.022268862
-0.0022545385 -0.04142622 -0.009550007 0.044297934 7.787262e-05 -0.016193349 0.022517454 0.029087376
0.012008594 -0.021833101 -0.0008481195 -0.031217258 -0.027043775 0.030416433 -0.025873277 -0.0221559
0.03830592 0.06677974 -0.046277873 0.00974611 0.018688152 0.049391303 0.035278834 0.0044734227
0.04995895 -0.0040757833 0.017873695 0.0024803467 0.0015452967 -0.009270646 0.014687514 0.019764733
-0.00057835743 0.036432445 -0.011012862 -0.026449993 0.0026127575 0.020493839 -0.024399277 -0.010391051
0.019087272 0.0006821513 -0.013513832 0.02687074 0.01157244 -0.022104345 -0.03174644 0.043047465
-0.0122922845 -0.024706108 -0.027512109 0.033618573 0.05052989 0.004273514 0.010478738 0.0031231288
0.017112814 0.01487179 -0.014733844 -0.011949321 0.009344383 -0.01614838 -0.012261109 -0.024981147
-0.079586565 -0.00035190044 0.04468263 -0.029414997 0.085605346 -0.03507154 -0.047173828 0.025389465
0.023169031 0.02053618 0.0042061764 0.045316465 -0.042676926 0.017897544 -0.010882245 -0.00913619
0.028615857 -0.021456437 0.022074062 -0.014278102 0.016705872 -0.018673563 0.027018962 0.036168803
-0.019381963 -0.05027076 0.032843515 -0.027505318 0.0053764638 0.017963141 -0.011449679 0.032246042
0.022577139 -0.0075364853 0.016552351 -0.015907751 0.027749615 0.022332901 -0.033989046 0.01615088
0.017946849 0.029126044 -0.00048800174 0.0010587963 -0.019068636 0.017195791 -0.043173507 0.08934736
0.03382303 0.0066654156 -0.026692683 0.0406265 -0.054205075 0.025764106 -0.050699968 -0.009338213
-0.03536907 0.04080772 -0.025207987 0.036190096 0.007712676 0.0343119 0.023649288 0.026695943
0.036966838 -0.015185568 -0.013301894 0.0063845487 0.038065247 -0.011109647 -0.03837362 -0.029500788
-0.023681365 -0.0054327683 -0.012257201 -0.015374776 -0.02634982 -0.0034992467 -0.035412107 0.0337358
-0.005280556 -0.0018525147 0.018872084 -0.024169065 0.03364986 -0.005835823 0.002744738 -0.044777475
-0.003931397 0.006255295 0.001799498 -0.009153162 0.026701143 0.026648138 0.029842822 -0.009486961
0.00043047822 -0.029538494 -0.029963702 0.0012578438 0.0040510776 -0.02503394 -0.04539227 0.016453274
0.019086521 -0.04649085 0.02879808 -0.03513719 0.024046488 0.003980568 -0.01528589 0.049766548
-0.001877815 0.008252 -0.0012926375 -0.001099651 -0.0068389894 -0.019980412 -0.0069021676 0.019747712
0.008815445 -0.022118688 -0.028306857 0.008208266 -0.012178564 0.0028367857 0.007855603 0.021010382
0.015910966 -8.597022e-05 0.02692074 0.0081356075 0.011151177 0.029451871 -0.03410629 0.0013777686

conv2.bias f4 [64]
00000000: 6efb f63c b059 2bbc 6635 233d 52c8 7dbb
00000010: 138e 10bb 3757 c9bc fe5c 763c 5887 833c
00000020: eaf9 b8bc df36 193d 5161 dd3c dc4b 1f3d
00000030: 625f 113d cb93 09bd 8db2 5cbc 920c 1ebc
00000040: 0117 ca3c 497b d8ba f8ab f23b b7ae 13bd
00000050: bb02 c43b 5688 d33c b489 d9bc 9d8b 51bc
00000060: 5c63 dd3c aa91 dcba da30 d23c 7297 913c
00000070: 1e8e 2b3c 5228 003c 3119 1bbd b0b5 6a3c
00000080: fd01 833b 60db 863c f615 f23c 491b f1bc
00000090: c0b8 1a3d ccb1 08bd b7b4 e8bb 2925 073c
000000a0: aa50 d13c da96 28bc 728c 04bc d0e3 51ba
000000b0: aff9 c5bc eebf f73c 9c5c 88bc 7669 0dbd
000000c0: ec59 4bbc 8680 153d 90ee 1f3c 1657 ec3a
000000d0: 31a0 a4bc 9c08 ea3c 4472 303d 536b 05bd
000000e0: ca69 1abd 0f45 143d beef f9bb edce 043b
000000f0: 3fd4 d53c 5b14 253d 15e6 b739 9298 233b
0.030149188 -0.010458395 0.039845847 -0.0038724137 -0.002205734 -0.02457772 0.0150368195 0.016055748
-0.022580106 0.037405845 0.027023943 0.038890705 0.035491355 -0.033588212 -0.013470304 -0.009646552
0.024669172 -0.0016516234 0.007405754 -0.036055293 0.005981771 0.025821846 -0.02655492 -0.012789634
0.027024917 -0.0016828079 0.02565806 0.01777241 0.010470895 0.007822113 -0.03786582 0.014325544
0.0039980398 0.016462028 0.029551487 -0.029431956 0.037773848 -0.033372685 -0.007101621 0.008248606
0.025551159 -0.010289872 -0.008090125 -0.0008006664 -0.02416691 0.030242886 -0.016645722 -0.034524404
-0.012411576 0.036499523 0.009761468 0.0018031325 -0.020095916 0.028568558 0.043077722 -0.032573055
-0.037698545 0.036198672 -0.0076274564 0.002026494 0.026102183 0.040302616 0.00035075904 0.0024962765

conv3.weight f4 [12, 64, 3, 3]
00000000: d01f 90bb c1b3 0fbd 99b8 38bd 954e 3c3c
00000010: be5b cd3c 8835 e8bc 01f9 443d 6ee6 05bc
00000020: 33f0 693c 7424 1ebd ab23 fb3b 555e 523c
00000030: 86cb cfbc 776d 28bc 06fc f5bc a853 15bd
00000040: d261 703c 7272 4c3d 0979 333c 5c1e 8c3c
00000050: 72b5 ff3c f303 d2bc 64d7 e1bc 73b6 89bc
00000060: f74d 36bd 3610 2f3b 345f 973c 9e0f 5ebc
00000070: 1134 bb3c ffd1 98bc baf3 e5bc e0b7 363d
00000080: a6eb 003c 0138 0a3d f2b8 8dbc dd94 9d3c
00000090: a230 f5bc 9faf 1ebb c3ef 533c a735 d93c
000000a0: 2614 8a3c 4813 2cbd 3cc9 c1bc 7534 2d3d
000000b0: c2df 053d 26e9 fc39 a270 2abb b631 dd3a
000000c0: 999e 563a cd17 bc3a 750e e5b8 ebf9 cc3a
000000d0: 608d 393b a59f c93b 012e f93c 7943 1fbc
000000e0: ff2c 18bd 8b13 9fbc 36f8 bfbc 797f 8b3c
000000f0: 2a1f 203c 7a0c a43b b1ca 963c 8d25 96bc
00000100: 1851 3fbc d0c3 773c e663 213d 5351 253d
00000110: f50d 11bd 0741 723d a275 1aba e848 1bbd
00000120: ab48 1fbc bd57 073d df25 8b3c 3f9f 5fbb
00000130: 4b79 f53c d5fd 353d cd7d 153d 01ed 0dbc
00000140: 1820 1fbd 2c9f 45bc 8c38 fbbb e6df 21bc
00000150: 7066 86bc dece 823c 3bad 0cbd 841c 93ba
00000160: 7f99 2e3c 7e29 5fbc 5a55 d53c c8b3 95bc
00000170: 86ad b3bc e440 9abc 358d 33bb 10d4 b0bb
00000180: dd68 aebc 8fd2 3a3c e225 e23b 6b73 c83c
00000190: be7a a5bc dd98 0bbd 4acc fb3c b772 6ebb
000001a0: 3a31 293d 7704 243c eb4a 273d b713 323d
000001b0: 18d1 1e3c 9aa1 b9bc 07f9 1fbd 0d48 483c
000001c0: 6299 873c 6c38 8139 69f9 3abd 5dbb 3e3c
000001d0: 449a cfbc 4e04 efba 076e 11b9 b21e 0cbb
000001e0: 7697 8ebb 4f74 debb 14a6 c93b ac86 493b
000001f0: 0cf5 c9bb 91f6 3fbb 556b 25b8 9e78 a0bc
00000200: b753 f93c a644 b23c 0c2b 38bc d4a7 f73a
00000210: 7b0c a1bc 893d f8bc c0e3 053d 648b 8c3c
00000220: 007c ac3a 1679 fd3c ab70 31bc 9c1a 643d
00000230: ad7b 45bc 0c5f 953b 1d8c 373d 7cfb 143c
00000240: b653 a93b 1567 61bb d875 e0bc 1443 29bc
00000250: 8623 3b3c b666 a63a ccca 9cbc 127d 293d
00000260: e757 55bc ba5c 4c3d e18d 383d e00b 09bd
00000270: 782b 703a cac3 c13b 3ce5 a1bc 9c10 9fbc
00000280: 8754 cdbc d1b4 10bd 023e 83bb 5b08 e8bc
00000290: 0e5a 54bc ca4f 02bd 1df9 a43b 7d38 653d
000002a0: 16fb 3c3c 519f 223d 1a03 0cbd beb1 663c
000002b0: 5108 dbbc 71ca 7c3c 59d8 2f3d 6b3f 97bc
000002c0: 3d1a ca3c 37c3 3bba 9309 05bd 7e62 903c
000002d0: ee03 11bd 0582 0fbd 530a 37bd 9d88 823c
000002e0: 8c58 88bc afd6 06bd fcb8 32bc 1ac8 3e3a
000002f0: dc22 303c ea90 c73c bc3a b13c c9db da3c
00000300: 1729 d1bb 1ecd 3f3b 7d55 5d3b 64c9 a53c
00000310: f4ad f03b ae7d c23b 7faa ed3b 83a5 1b3c
00000320: 16df 8c3c c132 70bb e193 13bc af96 4d3b
00000330: 8584 36bc ef11 61bc 2a31 673c daf1 07bd
00000340: bd9c fcbb cb1b a03d 65eb 0b3d a9a1 be3d
00000350: 28a4 203e e2b9 3438 50a2 773c 4fae fa3d
00000360: d99a 45bd b5ed 74bd c521 d93c 7a84 bc3d
00000370: 5834 313d 72ab a73d eeaf c5bb 1a09 1f3d
00000380: 06ab 8539 0556 303d 9221 02bd 0506 f63c
00000390: 06ba ebbc 1652 c93b eb16 cdbc 4d76 813b
000003a0: 0cc3 b4bb 645c 193d 6733 093d d3df 5b3d
000003b0: d88a 923c 0598 333d 220d 2e3d f7dc e83b
000003c0: 3046 10bc cd74 983c b64d 32bc bd1f cd3c
000003d0: c9aa d13c 8fd9 dbbc 4f95 a53c ffd8 423c
000003e0: 2c42 76bc 373e 30bd 7973 263c 9499 0f3d
000003f0: 61ab a3bc 32b5 cf3b 8cf9 0abd ee41 013d
-0.0043983236 -0.035083536 -0.04509792 0.011493345 0.02506816 -0.028345838 0.04808903 -0.0081726145
0.014278459 -0.038608983 0.007664164 0.012839873 -0.025365602 -0.010280005 -0.0300274 -0.036456734
0.01467176 0.04991383 0.01095415 0.01710432 0.03121445 -0.025636649 -0.027568527 -0.016810631
-0.044507947 0.0026712543 0.018478014 -0.013553528 0.022851976 -0.018654821 -0.02807032 0.04460895
0.007868683 0.033744816 -0.017300103 0.019236023 -0.029930416 -0.0024213565 0.012935582 0.026514841
0.01685531 -0.042010576 -0.023655526 0.042286355 0.032684095 0.00048238895 -0.0026007076 0.0016875777
0.0008187085 0.0014350355 -0.00010922264 0.0015638446 0.0028313026 0.0061530643 0.030417444 -0.009720677
-0.037152287 -0.019418499 -0.023433786 0.017028557 0.009773055 0.00500637 0.018407198 -0.018328452
-0.011677049 0.015122369 0.03940191 0.04036076 -0.0354137 0.059144046 -0.00058921624 -0.037911326
-0.009721915 0.033042658 0.016985832 -0.0034122018 0.029965064 0.044431526 0.036496926 -0.008662463
-0.038848966 -0.012061875 -0.007666653 -0.009880042 -0.016406268 0.015967783 -0.034344893 -0.0011223708
0.0106567135 -0.013620732 0.026041675 -0.018274203 -0.021933328 -0.01882977 -0.0027397398 -0.0053963736
-0.021290237 0.01140274 0.0069014886 0.024469098 -0.02020013 -0.03408133 0.030737061 -0.0036384293
0.04130671 0.01001083 0.04084293 0.043475833 0.0096934065 -0.022660065 -0.03905585 0.0122242095
0.01655263 0.00024646835 -0.045648012 0.011641351 -0.025342114 -0.0018235536 -0.00013869266 -0.00213806
-0.0043515516 -0.0067887674 0.0061538313 0.0030750437 -0.006163245 -0.0029291252 -3.9439026e-05 -0.019588765
0.030435426 0.02176125 -0.011240732 0.0018894621 -0.019659271 -0.03030278 0.032687902 0.01715631
0.0013159513 0.030941527 -0.010830085 0.05568944 -0.012053412 0.0045584496 0.044811357 0.009093162
0.00516745 -0.0034393717 -0.027399942 -0.010330934 0.011422044 0.0012695405 -0.01913967 0.041379042
-0.013021446 0.04989312 0.04505718 -0.03345859 0.0009161751 0.0059132325 -0.019762628 -0.0194171
-0.02506472 -0.03532869 -0.0040051946 -0.028324297 -0.012960924 -0.031814374 0.0050345794 0.055962075
0.011534473 0.039702717 -0.034182645 0.014080463 -0.026737364 0.015429125 0.042930935 -0.018462857
0.024670715 -0.0007162573 -0.032479834 0.01762509 -0.03540414 -0.035036106 -0.04468758 0.015934283
-0.016643785 -0.032919582 -0.0109083615 0.0007277742 0.010750499 0.024361093 0.021634452 0.02671613
-0.006383072 0.0029266546 0.0033772879 0.020237632 0.0073449556 0.0059353923 0.0072529907 0.00949991
0.01719622 -0.0036651345 -0.009007425 0.0031370332 -0.011139994 -0.013737186 0.014110843 -0.033189632
-0.0077091143 0.07817801 0.034160037 0.09308178 0.1568762 4.308846e-05 0.015114382 0.12240278
-0.048243377 -0.059797008 0.02650536 0.092049554 0.04326281 0.081869975 -0.0060329353 0.03882704
0.0002549516 0.043050785 -0.031770296 0.030032167 -0.028775226 0.0061438186 -0.025035342 0.00395087
-0.0055164155 0.037441626 0.033496287 0.053680252 0.017888471 0.04384615 0.042492993 0.007106419
-0.0088057965 0.018610382 -0.010882786 0.025039548 0.025594132 -0.026837138 0.020212797 0.011892556
-0.015030425 -0.043028083 0.010159367 0.035058573 -0.01997918 0.006338739 -0.033929393 0.031557016

conv3.bias f4 [12]
00000000: 3b52 003c 17bf 47bc c1de 58bc 9768 c33c
00000010: 198a 8b3c 70a6 17bc e8c5 533a aa51 ee3b
00000020: 0452 af3b 3765 0fbc a0a2 d9bc 88db febc
0.007832105 -0.012191555 -0.013236702 0.023853583 0.017033624 -0.00925599 0.00080785016 0.0072729187
0.005350353 -0.008752159 -0.026566803 -0.03111054
